best_mnist_model_4.pt (torch_old, 350357 bytes, 6 tensors)

conv1.weight f4 [8, 1, 3, 3]
-0.4127138 0.3240331 0.091465876 0.15598227 0.23115307 0.07490084 0.13031144 0.15249686
0.17304564 -0.2809176 -0.07715736 0.018499194 0.24506496 0.26602 0.43143657 0.051001795
-0.16568343 -0.43054688 -0.57348615 -0.11032408 0.31806952 -0.68459743 0.182021 0.49421173
-0.6821547 0.30648345 0.3466254 0.56448305 0.47509944 -0.08799294 -0.32243302 -0.18780364
0.34868583 -0.44702086 -0.22910614 -0.29503024 0.39615822 0.090688 0.54606766 -0.09181325
-0.12520549 0.34342104 -0.5856175 -0.17988382 -0.06734305 -0.29166853 -0.96073765 -0.83221954
0.4104577 0.091122255 0.20726202 0.64780164 0.36970446 -0.033609394 0.20442893 0.24862312
-0.19677024 0.27860272 0.32463112 0.2145695 -0.09213495 0.031530842 -0.0791739 -0.16133635
-0.5764614 -0.67354965 0.2525255 0.05725678 0.15356389 0.22643334 0.42093962 0.26285398
00000000: 394f d3be abe7 a53e 7652 bb3d d1b9 1f3e
00000010: 64b3 6c3e 9d65 993d 5d70 053e 2328 1c3e
00000020: e032 313e 6fd4 8fbe ae04 9ebd 9f8b 973c
00000030: 4ff2 7a3e c633 883e 41e5 dc3e 42e7 503d
00000040: eba8 29be a470 dcbe fdcf 12bf 97f1 e1bd
00000050: 02da a23e c741 2fbf b763 3a3e 5209 fd3e
00000060: b1a1 2ebf 66eb 9c3e e278 b13e f681 103f
00000070: 3c40 f33e a435 b4bd f115 a5be 994f 40be
00000080: f386 b23e ebdf e4be cd9a 6abe 340e 97be
00000090: 40d5 ca3e a1ba b93d 17cb 0b3f 9608 bcbd
000000a0: de35 00be e2d4 af3e 07eb 15bf 7733 38be
000000b0: 27eb 89bd 9455 95be e7f2 75bf 570c 55bf
000000c0: 8327 d23e 4e9e ba3d 7f3c 543e 54d6 253f
000000d0: e749 bd3e 01aa 09bd d155 513e 0f97 7e3e
000000e0: 237e 49be 04a5 8e3e 0d36 a63e 1bb8 5b3e
000000f0: 40b1 bcbd 7c26 013d ed25 a2bd 5b35 25be
00000100: f992 13bf c06d 2cbf 064b 813e 1686 6a3d
00000110: da3f 1d3e 24de 673e 6685 d73e cc94 863e

conv1.bias f4 [8]
0.05153599 -0.040949084 -0.28452063 -0.077001 -0.14664572 -0.15334684 0.11280477 -0.014756843
00000000: 6717 533d 3aba 27bd b0ac 91be b3b2 9dbd
00000010: 4c2a 16be f406 1dbe 3006 e73d b0c6 71bc

fc0.weight f4 [64, 1352]
0.016357534 -0.015168967 -0.024121547 0.024994869 0.015794089 0.038152598 0.015421663 -0.011156667
0.014990019 0.008486988 -0.023384681 -0.016531574 0.009278983 0.004783796 -0.010017854 -0.0024455886
0.06261712 0.062453497 0.050156087 -0.0011789425 -0.021350214 -0.03958881 -0.0070701535 -0.023704384
0.0006344636 -3.399565e-05 0.01502691 0.04349987 0.052691817 0.060443193 0.08897279 0.062434815
0.029057793 0.037588287 -0.021209018 -0.03544834 -0.030650042 -0.007795298 0.018742315 -0.0028920036
0.057146106 0.035574082 0.04172205 0.023435177 0.027175598 0.035857495 0.03687841 0.017257964
0.06466836 0.07585906 0.02499314 0.009202825 0.025401197 0.024496226 -0.010172225 -0.008000301
-0.024369756 -0.015091081 -0.05321055 0.029794864 0.0026406953 0.01926738 0.023858568 0.010967147
0.0076253316 0.013523939 -0.04434751 -0.032738823 -0.03744513 -0.04538174 -0.15515205 -0.18197522
-0.039017607 -0.00553064 -0.0024168126 -0.035012666 -0.025232565 0.012086069 -4.2979398e-05 -0.028067792
-0.08932305 -0.0786529 -0.079426594 -0.14051881 -0.09215694 0.02032419 -0.0024856213 -0.003152046
0.028703634 0.015735079 0.035851248 0.020058613 -0.01911956 -0.08784306 -0.14088348 -0.015334183
-0.043350723 0.025829066 0.007510331 -0.012879756 -0.0078740865 0.03689723 -0.0017494843 -0.003936136
-0.002485934 -0.047940936 -0.076749116 -0.07875535 0.01295719 0.050641447 0.09647169 0.0120329
-0.0039180615 -0.033498775 -0.06438982 -0.018514166 0.023925804 -0.016312227 0.011285393 -0.06745059
-0.011986658 0.031849585 0.0697903 0.0869234 0.026314171 -0.06266672 -0.08824093 -0.07802369
-0.033236492 0.02826657 0.026746383 0.036757875 0.036662944 -0.007574512 0.0068323687 0.04083204
0.011580077 0.032452483 -0.061211526 -0.0679018 -0.017567948 -0.020139327 -0.005130234 0.026056295
0.034259625 0.07355926 0.030692264 -0.006039044 0.051067535 0.045937993 0.027720936 -0.0055768667
-0.054390628 -0.0013513681 0.0055561904 -0.020972556 -0.020073388 0.00017111066 0.036921553 0.04212884
0.021181988 0.043357506 0.020023769 0.023958473 -0.019052139 0.0055810353 0.008636914 -0.014839966
0.00170212 0.019374426 0.010469354 -0.006119882 0.024390906 0.025857627 0.012894723 0.012760173
0.032023255 0.034482352 -0.007242494 0.03255516 0.0129685635 -0.01115348 0.021812651 -0.013417052
0.032996926 -0.008069839 0.032114934 0.016438244 0.011971531 0.02549176 0.0033767384 -0.013322814
-0.022814604 0.0022889369 -0.0084748855 0.007091081 0.0002378286 0.029038934 0.059421048 0.039980277
0.0075070537 0.018874094 0.015682783 0.06546135 0.005193066 0.0101793725 0.008927891 -0.011151375
0.028754232 0.043455426 0.031826057 0.019437762 -0.00079116237 0.008082507 0.014972578 0.039812434
0.02450885 0.012440677 0.030279655 0.007107041 0.004403414 0.0030224652 0.0057380814 0.04506932
0.062303755 0.053077344 0.02037986 0.029371241 -0.0088734375 -0.034343794 0.038774647 -0.0298042
-0.0077603725 0.022161826 0.024301227 0.017428078 0.017977154 0.009023753 -0.007859871 -0.06127994
-0.102304175 -0.06550777 0.025018802 0.02127231 -0.039986383 -0.009916735 0.018214546 0.014762064
0.02104585 -0.011643648 0.025423842 0.0011675752 -0.07692139 -0.08257661 0.018879162 0.04454181
00000000: 3c00 863c 4287 78bc 8d9a c5bc 0ac2 cc3c
00000010: 9b62 813c e645 1c3d 25ab 7c3c 74ca 36bc
00000020: b298 753c 020d 0b3c 3b91 bfbc 396d 87bc
00000030: e006 183c 64c1 9c3b ed21 24bc 2b46 20bb
00000040: 683d 803d 3dcf 7f3d 7870 4d3d bf86 9aba
00000050: a5e6 aebc e027 22bd bfac e7bb b22f c2bc
00000060: 2252 263a 8d96 0eb8 6e33 763c eb2c 323d
00000070: 60d3 573d 4893 773d 5e37 b63d a6bb 7f3d
00000080: 9c0a ee3c 2df6 193d 89be adbc 4732 11bd
00000090: cc15 fbbc b36f ffbb 7c89 993c c587 3dbb
000000a0: 0912 6a3d 21b6 113d bee4 2a3d 21fb bf3c
000000b0: 5c9f de3c 4fdf 123d d10d 173d 9360 8d3c
000000c0: d870 843d ff5b 9b3d 6abe cc3c 72c7 163c
000000d0: 2c16 d03c 4fac c83c 67a9 26bc b213 03bc
000000e0: 15a3 c7bc 9540 77bc 4ef3 59bd 5c14 f43c
000000f0: 840f 2d3b a0d6 9d3c 0b73 c33c 8caf 333c
00000100: ebdd f93b 8393 5d3c bca5 35bd 2519 06bd
00000110: 1160 19bd 34e2 39bd 2ee0 1ebe b657 3abe
00000120: edd0 1fbd 5f3a b5bb 6363 1ebb 7169 0fbd
00000130: 86b4 cebc a604 463c c744 34b8 6dee e5bc
00000140: 01ef b6bd c614 a1bd 69aa a2bd 2ae4 0fbe
00000150: c7bc bcbd ea7e a63c cee5 22bb 8e92 4ebb
00000160: e223 eb3c dae6 803c c2d8 123d f651 a43c
00000170: a0a0 9cbc 10e7 b3bd c243 10be 3a3c 7bbc
00000180: 8790 31bd 7a97 d33c 3919 f63b 9d05 53bc
00000190: 5002 01bc 8d21 173d f44e e5ba b4fa 80bb
000001a0: 0deb 22bb b75d 44bd a42e 9dbd 7c4a a1bd
000001b0: 654a 543c 686d 4f3d f392 c53d a425 453c
000001c0: 1563 80bb 0336 09bd cfde 83bd 05ab 97bc
000001d0: 0c00 c43c 38a1 85bc 5ee6 383c 8923 8abd
000001e0: b063 44bc b674 023d 38ee 8e3d e504 b23d
000001f0: d190 d73c 6957 80bd a9b7 b4bd e2ca 9fbd
00000200: fd22 08bd 4b8f e73c 3b1b db3c 6d8f 163d
00000210: e22b 163d 9d33 f8bb 10e2 df3b 7f3f 273d
00000220: 5dba 3d3c e5ec 043d f0b8 7abd 1910 8bbd
00000230: a8ea 8fbc 3bfb a4bc 861b a8bb 0374 d53c
00000240: d253 0c3d 3da6 963d 586e fb3c 2ce3 c5bb
00000250: 312c 513d 7a29 3c3d 0417 e33c 26be b6bb
00000260: b5c8 5ebd 6420 b1ba b410 b63b a3ce abbc
00000270: f270 a4bc 2b6c 3339 0e3b 173d 4a8f 2c3d
00000280: d985 ad3c a497 313d e308 a43c 8f44 c43c
00000290: 3b13 9cbc 1ee1 b63b d881 0d3c 5423 73bc
000002a0: ab19 df3a 1eb7 9e3c a787 2b3c 4b89 c8bb
000002b0: 70cf c73c 60d3 d33c 6344 533c 0b10 513c
000002c0: d12a 033d 5e3d 0d3d 7152 edbb 8f58 053d
000002d0: 197a 543c 16bd 36bc 72b0 b23c 32d3 5bbc
000002e0: c927 073d 5c37 04bc f38a 033d 7fa9 863c
000002f0: 3e24 443c 18d4 d03c 454c 5d3b ef47 5abc
00000300: b1e5 babc fd01 163b 3fda 0abc 4c5c e83b
00000310: a161 7939 0fe3 ed3c 7c63 733d 5cc2 233d
00000320: bbfd f53b d89d 9a3c 2e79 803c 9a10 863d
00000330: 982a aa3b 62c7 263c 4a46 123c 42b4 36bc
00000340: ff8d eb3c 51fe 313d 0a5c 023d f13b 9f3c
00000350: 0266 4fba 7e6c 043c 8b4f 753c 5d12 233d
00000360: c9c6 c83c fbd3 4b3c 0a0d f83c 2ee2 e83b
00000370: 844a 903b 8d14 463b 8406 bc3b 9b9a 383d
00000380: 3932 7f3d a167 593d aaf3 a63c f59b f03c
00000390: e561 11bc 14ac 0cbd 2ad2 1e3d f027 f4bc
000003a0: b94a febb b88c b53c 5e13 c73c 54c5 8e3c
000003b0: d344 933c 5dd8 133c b0c6 00bc ad00 7bbd
000003c0: da84 d1bd f028 86bd 3bf4 cc3c 4443 ae3c
000003d0: c3c8 23bd cd79 22bc ac36 953c 96dc 713c
000003e0: 5968 ac3c 00c5 3ebc a945 d03c 5309 993a
000003f0: f688 9dbd ed1d a9bd 79a8 9a3c 7971 363d

fc0.bias f4 [64]
0.03896175 0.059089895 -0.028118564 0.061949138 -0.14431226 0.009756498 0.032481022 0.03205054
-0.07133908 -0.012650236 -0.051142503 0.04823051 0.01528289 0.07736087 0.062707655 -0.064633235
0.008017454 -0.010935008 0.100833714 -0.018955953 -0.06626572 0.001500696 0.046504833 0.026907815
0.05869385 -0.10821784 0.07782792 -0.006569262 0.021258326 -0.071532026 -0.034498543 0.06768769
0.06031937 -0.0018462288 0.09593437 -0.08550472 -0.1394977 0.0788095 -0.076383114 0.06524207
0.12707241 0.061848477 0.011173923 -0.024262678 0.067653835 0.023106538 0.08285274 0.1256167
-0.018564057 -0.050676372 0.09237415 0.061030574 0.06890311 -0.07935316 -0.05143309 -0.0121408
0.020874556 0.03728465 0.13553244 0.08195077 -0.04890274 -0.05108367 0.00082994474 0.06198827
00000000: 5b96 1f3d 3f08 723d e758 e6bc 61be 7d3d
00000010: 98c6 13be b8d9 1f3c d20a 053d 6d47 033d
00000020: 391a 92bd ef42 4fbc cd7a 51bd 5b8d 453d
00000030: 1665 7a3c 606f 9e3d df6c 803d 6e5e 84bd
00000040: a45b 033c bf28 33bc e881 ce3d 8449 9bbc
00000050: 52b6 87bd 00b3 c43a da7b 3e3d c76d dc3c
00000060: f668 703d 51a1 ddbd 3f64 9f3d f742 d7bb
00000070: f125 ae3c 627f 92bd 584e 0dbd d89f 8a3d
00000080: 7211 773d 29fd f1ba 3d79 c43d 191d afbd
00000090: 7cd8 0ebe e066 a13d c06e 9cbd a29d 853d
000000a0: 451f 023e d454 7d3d d412 373c 86c2 c6bc
000000b0: 188e 8a3d ec49 bd3c b3ae a93d aaa1 003e
000000c0: a613 98bc 0792 4fbd a92e bd3d 32fb 793d
000000d0: 131d 8d3d e983 a2bd 81ab 52bd 35ea 46bc
000000e0: 1e01 ab3c cab7 183d 04c9 0a3e ced5 a73d
000000f0: 3d4e 48bd 1c3d 51bd a690 593a 6ae7 7d3d

fc1.weight f4 [10, 64]
-0.15402164 -0.023239486 -0.038413145 0.10120488 0.15882765 -0.1284951 -0.06270112 -0.1940083
0.16471992 -0.18302648 0.1569538 -0.2913075 0.11993463 -0.081075616 -0.1332023 -0.15151967
0.17525074 -0.11615053 0.19576332 -0.17660622 0.09261424 -0.02848613 -0.13475883 -0.04988252
0.054786168 -0.27535263 -0.20991576 -0.11156808 0.1325258 0.12911949 -0.21356718 0.15271679
-0.23743461 -0.3333084 -0.020820418 0.0040218644 -0.20868152 -0.25698465 0.009204311 0.10236909
-0.026929932 -0.26978874 -0.2422773 -0.02230636 -0.38192388 -0.09613076 -0.10922481 -0.0669094
0.0935307 -0.09822867 0.1101262 -0.44296232 0.1192486 -0.22346683 -0.20207547 -0.16358292
0.0694646 -0.16518909 -0.23165399 -0.0063283327 0.042114843 0.07037429 -0.37085238 -0.18794948
-0.070666805 0.0642103 -0.056889404 0.2271798 -0.18444313 -0.21107684 0.18989083 0.13360612
-0.05305951 -0.14586172 -0.22106197 0.1976899 -0.14288223 -0.12221582 0.2033907 -0.12521987
-0.23047471 0.09104693 -0.2272626 -0.19511351 -0.30256665 -0.21887393 0.07697979 0.17605661
-0.056525957 -0.21110877 0.24546105 -0.014585028 -0.2518698 -0.12889065 0.10587938 -0.17425951
0.19510333 -0.013993322 0.28692177 -0.065991886 -0.24813636 0.12149999 -0.06763298 -0.1309817
0.14309768 0.21652734 0.013921085 -0.11609153 0.11773378 -0.05584362 0.111786716 0.21894383
0.05158487 -0.27995428 -0.0039727557 0.063658334 -0.3951971 -0.12453481 -0.21436617 0.11999601
-0.08519722 -0.18557385 0.23249157 0.042600192 -0.1116438 0.100182086 -0.26599947 -0.014791904
0.12605177 0.048455853 -0.09216192 -0.14258686 0.08936768 0.15317632 0.13645078 -0.38655642
0.08580544 -0.20927927 -0.03899649 -0.08277304 0.18688309 0.034609217 -0.26486573 0.18513283
0.16556598 -0.062464718 -0.26652756 -0.20415214 -0.07523123 -0.049853873 0.0067043076 0.07532362
-0.36122155 -0.25397998 0.19362412 -0.20390089 -0.10375563 0.08083244 0.037240498 -0.008841741
0.04248332 0.0865178 -0.22054295 -0.00076894084 0.07902663 -0.33746776 -0.2428994 0.09736596
-0.32382047 -0.012238738 0.1370031 0.058660608 -0.28952825 -0.21731776 -0.006325116 0.139084
0.029561557 -0.031206394 -0.12755701 -0.2682338 -0.08780393 0.04014715 -0.17917652 0.08591665
-0.11119776 -0.23557657 -0.35798824 0.06725222 0.12904924 0.09493875 -0.25808468 0.15329999
-0.19851768 -0.24703641 -0.007428905 -0.19826813 0.0069989846 -0.11990361 -0.20554279 0.0629301
-0.15750071 -0.16410144 -0.024062589 0.09870237 0.018970257 -0.27416512 -0.001316899 0.1393526
-0.07086246 -0.0064659487 -0.25848642 0.12097885 -0.23505682 -0.09717521 -0.24654855 0.2022901
-0.28184354 0.116821855 -0.004406436 0.057908513 0.0022654072 -0.21540682 -0.0072210976 -0.19487472
-0.2396523 0.023433587 -0.2578309 0.0726296 0.043383937 -0.20856196 0.075044796 -0.09270607
-0.25219062 0.20528932 -0.22208148 -0.13551305 -0.18789256 -0.0067417747 0.043956835 -0.39585286
0.21338993 0.0911591 -0.19311664 0.045286134 -0.27808073 -0.21154194 0.08976727 0.022435402
0.050887726 -0.12220606 -0.32301924 -0.26844925 0.118063234 0.16458073 0.18812798 0.08008864
00000000: d9b7 1dbe bc60 bebc 1a57 1dbd 8144 cf3d
00000010: b7a3 223e 3894 03be 7269 80bd 1daa 46be
00000020: 57ac 283e 4b6b 3bbe 7fb8 203e 4226 95be
00000030: 4aa0 f53d f90a a6bd 2f66 08be f927 1bbe
00000040: ee74 333e 54e0 edbd 2e76 483e 43d8 34be
00000050: 89ac bd3d bf5b e9bc 38fe 09be 9d51 4cbd
00000060: 7667 603d 05fb 8cbe 28f4 56be ce7d e4bd
00000070: d8b4 073e e637 043e 5bb1 5abe ca61 1c3e
00000080: 0f22 73be 66a7 aabe 958f aabc d8c9 833b
00000090: 9cb0 55be 7e93 83be aecd 163c e3a6 d13d
000000a0: 299c dcbc c021 8abe 8a17 78be d4bb b6bc
000000b0: 878b c3be 34e0 c4bd 42b1 dfbd cc07 89bd
000000c0: 068d bf3d 1d2c c9bd d889 e13d f5cb e2be
000000d0: 9c38 f43d 7dd4 64be dfec 4ebe 4882 27be
000000e0: 7543 8e3d 5427 29be b436 6dbe e75d cfbb
000000f0: 9d80 2c3d 6520 903d 5de0 bdbe d475 40be
00000100: c2b9 90bd b180 833d dd04 69bd d2a1 683e
00000110: a9de 3cbe 8724 58be be72 423e 0bd0 083e
00000120: ee54 59bd c65c 15be 125e 62be 396f 4a3e
00000130: b84f 12be 4a4c fabd a745 503e a339 00be
00000140: 9001 6cbe d076 ba3d 87b7 68be d6cb 47be
00000150: 04ea 9abe 7d20 60be 95a7 9d3d 2f48 343e
00000160: c387 67bd e62c 58be 245a 7b3e 0bf6 6ebc
00000170: 14f5 80be e9fb 03be 4ad7 d83d 1671 32be
00000180: 2bc9 473e 3f44 65bc 69e7 923e c126 87bd
00000190: 7517 7ebe fdd4 f83d 2983 8abd 1120 06be
000001a0: 3388 123e 58b9 5d3e 4315 643c 65c1 edbd
000001b0: 681e f13d 48bc 64bd 6ff0 e43d d032 603e
000001c0: a84a 533d 2b56 8fbe e42d 82bb 4d5f 823d
000001d0: 4657 cabe 1b0c ffbd ce82 5bbe 78c0 f53d
000001e0: e17b aebd 1207 3ebe 4512 6e3e 8a7d 2e3d
000001f0: 81a5 e4bd 442c cd3d 1531 88be be59 72bc
00000200: b713 013e a579 463d 64bf bcbd 4a02 12be
00000210: 6706 b73d 41da 1c3e c1b9 0b3e b9ea c5be
00000220: c3ba af3d 4e4d 56be c9ba 1fbd e984 a9bd
00000230: 485e 3f3e 65c2 0d3d 7b9c 87be 7693 3d3e
00000240: 218a 293e 01db 7fbd 4d76 88be 420d 51be
00000250: d512 9abd 9333 4cbd cfaf db3b 4543 9a3d
00000260: 08f2 b8be aa09 82be 6745 463e 65cb 50be
00000270: d57d d4bd 7a8b a53d 7e89 183d f3dc 10bc
00000280: fd02 2e3d 3f30 b13d 03d6 61be bf92 49ba
00000290: b7d8 a13d 93c8 acbe 9fba 78be ce67 c73d
000002a0: cccb a5be fd84 48bc 8a4a 0c3e 1b46 703d
000002b0: 0c3d 94be 8c88 5ebe eb42 cfbb 096c 0e3e
000002c0: 142b f23c 8da4 ffbc 4e9e 02be f155 89be
000002d0: 8cd2 b3bd 5771 243d 0d7a 37be 12f5 af3d
000002e0: a7bb e3bd fc3a 71be 3c4a b7be 88bb 893d
000002f0: 7c25 043e 3f6f c23d ad23 84be acfa 1c3e
00000300: 3848 4bbe 1df7 7cbe 2c6e f3bb cd06 4bbe
00000310: bd57 e53b 0690 f5bd cf79 52be 7fe1 803d
00000320: de47 21be 350a 28be e81e c5bc 7824 ca3d
00000330: 8367 9b3c 5f5f 8cbe cc9b acba 73b2 0e3e
00000340: 5620 91bd 4fe0 d3bb 5558 84be c2c3 f73d
00000350: bcb2 70be cc03 c7bd 3977 7cbe 2325 4f3e
00000360: cc4d 90be 4c40 ef3d dd63 90bb 7a31 6d3d
00000370: 3a77 143b 9b93 5cbe f59e ecbb 3d8d 47be
00000380: 6a67 75be cbf7 bf3c 6902 84be d4be 943d
00000390: 5bb3 313d 4491 55be 16b1 993d aedc bdbd
000003a0: 211f 81be 5d37 523e 5469 63be efc3 0abe
000003b0: e866 40be 1bea dcbb 150c 343d 3aad cabe
000003c0: e482 5a3e 9fb1 ba3d 5ec0 45be f47d 393d
000003d0: 9960 8ebe 739e 58be e7d7 b73d 73ca b73c
000003e0: a66f 503d 2c47 fabd c762 a5be 2e72 89be
000003f0: 23cb f13d da87 283e 9fa4 403e 8305 a43d

fc1.bias f4 [10]
-0.09328427 0.2282171 0.004305058 0.04542445 0.07560648 -0.0840733 -0.02961675 -0.007462271
-0.0019101487 0.00637503
00000000: d30b bfbd beb1 693e 7211 8d3b fd0e 3a3d
00000010: 92d7 9a3d 9f2e acbd d49e f2bc 1186 f4bb
00000020: f45d faba a1e5 d03b
