best_mnist_model_16.pt (torch_old, 350357 bytes, 6 tensors)

conv1.weight f4 [8, 1, 3, 3]
-0.31154662 0.29867712 0.024081927 0.24308081 0.21657002 0.06965991 0.18550572 0.18187194
0.23522542 -0.23809017 0.0316837 0.12920707 0.05174542 0.1490465 0.45450148 0.088579714
-0.050749816 -0.15927039 -0.23437868 -0.06036657 0.13107857 -0.21266119 0.2262373 0.3592564
-0.4767503 0.31267917 0.27621964 0.5365541 0.39485446 -0.28857043 -0.21755579 -0.06451094
0.27829662 -0.049751 0.14095256 -0.19202438 0.5016012 0.17485587 0.5075364 -0.055514082
-0.16817248 0.21608795 -0.58008385 -0.19328047 -0.2601516 -0.20419292 -0.7444294 -0.55100834
0.32916042 0.008281483 0.30922818 0.5562613 0.24360068 -0.04961436 0.30795658 0.26680142
-0.12788834 0.3421308 0.38049835 0.39286548 -0.13157625 0.025083303 0.029964399 -0.015477558
-0.4621586 -0.5225372 0.2899236 -0.013846649 0.1261878 0.23914656 0.3243913 0.21028075
00000000: 0a83 9fbe 35ec 983e 7647 c53c 2dea 783e
00000010: 88c4 5d3e dba9 8e3d 36f5 3d3e a33c 3a3e
00000020: efde 703e e9cd 73be c4c6 013d dc4e 043e
00000030: 01f3 533d a59f 183e 6bb4 e83e 4869 b53d
00000040: 0adf 4fbd c717 23be f700 70be f042 77bd
00000050: 7639 063e dbc3 59be c0aa 673e 74f0 b73e
00000060: 9e18 f4be 7c17 a03e a96c 8d3e 9c5b 093f
00000070: 5d2a ca3e 81bf 93be f2c6 5ebe 501e 84bd
00000080: e57c 8e3e b4c7 4bbd de55 103e 0aa2 44be
00000090: f068 003f 6b0d 333e e8ed 013f bc62 63bd
000000a0: 6835 2cbe 2946 5d3e 6080 14bf 51eb 45be
000000b0: 9732 85be f317 51be ed92 3ebf e20e 0dbf
000000c0: b787 a83e 0faf 073c 2853 9e3e 2467 0e3f
000000d0: 7572 793e 6d38 4bbd 7cac 9d3e 329a 883e
000000e0: 29f5 02be c52b af3e aed0 c23e aa25 c93e
000000f0: edbb 06be 807b cd3c e677 f53c 9595 7dbc
00000100: 0da0 ecbe ffc4 05bf de70 943e 0edd 62bc
00000110: 6037 013e d6e2 743e 9e16 a63e d653 573e

conv1.bias f4 [8]
0.19261825 0.13015981 -0.16870214 0.20994967 -0.06557179 -0.043430146 0.1770135 0.07814172
00000000: b83d 453e 9d48 053e 41c0 2cbe 0cfd 563e
00000010: 814a 86bd cfe3 31bd 0743 353e c408 a03d

fc0.weight f4 [64, 1352]
0.015889807 -0.015833713 -0.02426042 0.019709403 -0.0041250414 0.015044729 0.009293939 -0.020184968
0.0043940223 0.0060553458 -0.018183341 -0.013076057 0.009190016 0.0047881915 -0.01202832 -0.009610945
0.02449072 -0.0056939223 0.014783597 0.012268254 -0.019162888 -0.02637402 0.024446247 -0.0017171587
0.016870528 0.0053558806 0.008663685 0.018788429 0.020669498 -0.023571009 -0.0003709922 0.018970476
0.017483681 0.011710995 -0.021221094 -0.021220265 -0.022419877 0.0012384359 0.027022412 -0.01726261
0.0128450515 -0.02086661 -0.03073548 -0.0063722273 0.018358098 0.024705756 -0.017512541 0.0029955548
0.018771347 0.011940024 0.016335426 0.019243358 0.017118877 0.0051385853 -0.024477636 -0.026551055
-0.0076095765 0.0012190959 -0.016544992 0.008426925 0.004390805 -0.01398943 0.0041612512 0.008018201
0.016443241 0.018231953 -0.010750661 0.02068789 -0.0051820967 0.0024531593 -0.0263268 -0.020970993
-0.01772241 -0.0142116835 0.015027745 -0.010886821 -0.019724293 0.010135594 0.008624163 0.016058361
-0.018830424 0.0034019635 -0.010176523 -0.009941494 -0.02357533 -0.011902462 -0.00858071 0.0122472625
0.0069883605 0.0068469183 0.026780814 0.026423072 0.017807962 -0.001962134 -0.023513397 0.018748512
-0.010739071 -0.0033496157 -0.024977291 -0.009181365 -0.019507874 0.025204195 -0.02498459 -0.021329079
-0.0012451764 -0.015774557 0.00742379 -0.01213317 -0.014340571 0.00023178752 0.017815946 -0.023528554
0.010522515 0.0139651 0.024323203 -0.019822828 0.006503397 -0.020521604 0.021463584 -0.011596622
0.015800873 0.0003484132 -0.0029615832 -0.0020591689 0.0047356533 0.0093614245 -7.507794e-05 0.0059819343
-0.024653992 0.019730305 0.02319657 0.020771172 0.017195119 -0.023751924 -0.014564275 0.02044872
-0.02195211 0.02207036 -0.02591831 -0.024423763 0.009658615 -0.02155687 -0.006415697 0.019578017
0.021094963 0.024565458 -0.0073735067 -0.022405509 0.026869914 -0.0047937143 -0.013265207 0.0025670428
-0.022991806 0.015730157 0.016172519 -0.02186663 -0.022407757 -0.0024560215 0.011381867 -0.0009155493
-0.013803423 0.0013854695 -0.024905216 -0.019167522 -0.018503726 0.022356292 0.023632314 -0.009367993
0.001136468 0.012471276 0.0036008784 -0.013276399 0.016027492 0.016793773 -0.0013594924 -0.0021015126
0.025263 0.024625344 -0.0155677 0.027341807 0.0070124906 -0.017727418 0.015229932 -0.019961873
0.025395472 -0.017596481 0.008172189 0.009825333 0.00806797 0.02235519 -0.01271401 -0.010686953
-0.023697613 -0.0015129594 -0.012678032 0.0014320145 -0.006170824 0.0075565525 0.02268376 0.007029334
-0.008989576 -0.013352117 -0.02526665 0.022956764 -0.0066956882 0.003216668 0.00045387016 -0.016918479
0.015658792 0.014043393 -0.001430206 -0.018173713 -0.013662948 0.00062486326 -0.018376194 -0.012981853
-0.004095903 -0.010451939 0.004917765 -0.006690935 -0.0032627531 -0.0100380955 -0.026116481 0.020644149
0.0041545816 0.025858285 -0.0033780502 -0.0050195763 -0.027419638 -0.010386534 0.0148013355 -0.028654503
-0.009008142 0.016875114 0.016016804 0.008377867 -0.00799673 -0.0034784544 -0.0051069604 -0.009633727
0.010664244 -0.00942422 -0.017757025 0.002817049 -0.02070912 -0.0046244767 0.01418326 0.010506376
0.02267196 -0.020388097 -0.0010110871 -0.009973725 -0.016503 -0.015584297 0.007902776 0.0012214263
00000000: 572b 823c b4b5 81bc cabd c6bc 9d75 a13c
00000010: 5b2b 87bb 2b7e 763c 9b45 183c f25a a5bc
00000020: bbfb 8f3b ec6b c63b 3bf5 94bc f53c 56bc
00000030: b991 163c 43e6 9c3b 6e12 45bc 3a77 1dbc
00000040: c3a0 c83c 1594 babb e636 723c c900 493c
00000050: 7dfb 9cbc 540e d8bc 7f43 c83c 4912 e1ba
00000060: 1034 8a3c 6280 af3b 21f2 0d3c 31ea 993c
00000070: 1453 a93c fd17 c1bc bb81 c2b9 f967 9b3c
00000080: f039 8f3c 79df 3f3c dcd7 adbc 1fd6 adbc
00000090: e4a9 b7bc 0353 a23a 1b5e dd3c 516a 8dbc
000000a0: 0d74 523c 74f0 aabc f9c8 fbbc 1ece d0bb
000000b0: b963 963c ba63 ca3c 7676 8fbc 1251 443b
000000c0: 5ec6 993c 17a0 433c dfd1 853c 3fa4 9d3c
000000d0: e33c 8c3c 9461 a83b 5385 c8bc 9981 d9bc
000000e0: c159 f9bb 12ca 9f3a 5d89 87bc 1611 0a3c
000000f0: bee0 8f3b ec33 65bc 1b5b 883b c65e 033c
00000100: fab3 863c 2d5b 953c 8a23 30bc a679 a93c
00000110: 94ce a9bb 2fc5 203b 4dab d7bc 5ccb abbc
00000120: 962e 91bc 1fd8 68bc ee36 763c a35e 32bc
00000130: d794 a1bc c30f 263c 5d4c 0d3c d38c 833c
00000140: 4342 9abc 7af3 5e3b 6ebb 26bc a6e1 22bc
00000150: 0d21 c1bc 8b02 43bc 1b96 0cbc bea8 483c
00000160: 9efe e43b 1d5c e03b 7063 db3c 3375 d83c
00000170: 01e2 913c 2597 00bb 2b9f c0bc 7b96 993c
00000180: eef2 2fbc 3a85 5bbb 2d9d ccbc 706d 16bc
00000190: face 9fbc 0779 ce3c 7cac ccbc 52ba aebc
000001a0: 3035 a3ba a539 81bc 4443 f33b 34ca 46bc
000001b0: b7f4 6abc fd0b 7339 bff2 913c f4be c0bc
000001c0: a066 2c3c e0cd 643c 7441 c73c 7c63 a2bc
000001d0: 731a d53b ec1c a8bc 66d4 af3c c2ff 3dbc
000001e0: d570 813c 3aab b639 1f17 42bb 1ff3 06bb
000001f0: 8a2d 9b3b a960 193c 2a73 9db8 1a04 c43b
00000200: 2bf7 c9bc 73a1 a13c bc06 be3c 4e28 aa3c
00000210: c7dc 8c3c 6593 c2bc ff9e 6ebc 1384 a73c
00000220: e9d4 b3bc e6cc b43c a352 d4bc 5814 c8bc
00000230: 2b3f 1e3c 0898 b0bc c43a d2bb 1462 a03c
00000240: 58cf ac3c 803d c93c 759d f1bb c28b b7bc
00000250: 4b1e dc3c 9714 9dbb 5056 59bc d53b 283b
00000260: 5059 bcbc 88dc 803c 3b7c 843c a621 b3bc
00000270: 7990 b7bc 34f5 20bb 037b 3a3c 7901 70ba
00000280: c127 62bc a498 b53a 0606 ccbc 3505 9dbc
00000290: 2095 97bc 8b24 b73c 8e98 c13c 367c 19bc
000002a0: 8af5 943a 5354 4c3c b7fc 6b3b 4185 59bc
000002b0: 164c 833c 1893 893c ff30 b2ba 88b9 09bb
000002c0: 5af4 ce3c 17bb c93c ab0f 7fbc edfb df3c
000002d0: 09c9 e53b 1739 91bc f786 793c 1587 a3bc
000002e0: 2a0a d03c 7f26 90bc a5e4 053c 6ffa 203c
000002f0: 852f 043c 3b22 b73c 6c4e 50bc 5418 2fbc
00000300: 7f21 c2bc 7e4e c6ba 85b7 4fbc 6fb2 bb3a
00000310: a034 cabb f59c f73b 4bd3 b93c 5456 e63b
00000320: 0449 13bc d6c2 5abc 01fc cebc d30f bc3c
00000330: 8167 dbbb bcce 523b 6cf5 ed39 9f98 8abc
00000340: de46 803c 4216 663c c075 bbba 0ae1 94bc
00000350: 8fda 5fbc ddcd 233a ac89 96bc d7b1 54bc
00000360: ed36 86bb 9c3e 2bbc 3425 a13b a23f dbbb
00000370: ead3 55bb d376 24bc 3bf2 d5bc eb1d a93c
00000380: 2823 883b c1d4 d33c 4762 5dbb 427b a4bb
00000390: 269f e0bc 482c 2abc 4d81 723c d9bc eabc
000003a0: e396 13bc ae3d 8a3c ac35 833c 5243 093c
000003b0: b704 03bc c8f6 63bb 4a58 a7bb c8d6 1dbc
000003c0: 15b9 2e3c 0b68 1abc 2e77 91bc 3d9e 383b
000003d0: 2ca6 a9bc ec88 97bb e760 683c ef22 2c3c
000003e0: 8cba b93c f004 a7bc 7486 84ba d668 23bc
000003f0: 4d31 87bc 4755 7fbc a57a 013c 4418 a03a

fc0.bias f4 [64]
-0.011541391 0.0417818 0.007967022 -0.0065421513 -0.05492401 -0.032721333 -0.015379352 0.036188178
-0.04552774 -0.0033971157 0.017703498 0.026631428 -0.017235612 0.055125915 0.0319252 -0.021332188
0.047662154 -0.021765113 0.029857699 -0.0047051716 0.014648325 0.04321127 0.025758501 0.021612301
0.055517387 -0.069400564 0.04875347 -0.018929468 0.014909085 -0.012389139 -0.026463117 0.0661908
0.032769293 -2.3296385e-05 -0.005112687 -0.016741969 -0.060381535 0.045714684 -0.024278676 0.05137286
0.089679055 0.029936634 -0.018720629 -0.030969003 0.036795605 0.015720552 0.061186656 0.03380138
0.007291328 0.023680668 0.074103005 0.057158194 0.047828697 -0.034865066 -0.019624993 -0.00409792
0.016951656 0.0072479746 0.046272684 0.046185266 0.016494486 -0.0053518317 0.03864676 0.037472706
00000000: 1a18 3dbc 6523 2b3d 1d88 023c 8b5f d6bb
00000010: 00f8 60bd ce06 06bd adf9 7bbc 0e3a 143d
00000020: 4c7b 3abd 25a2 5ebb ed06 913c 272a da3c
00000030: b331 8dbc b6cb 613d 00c4 023d d7c0 aebc
00000040: 6439 433d c04c b2bc 2298 f43c d72d 9abb
00000050: 87ff 6f3c 4dfe 303d 7e03 d33c 480c b13c
00000060: 3366 633d e221 8ebd b8b1 473d f911 9bbc
00000070: 3c45 743c d1fb 4abc 2ec9 d8bc 0b8f 873d
00000080: 1839 063d 9b6c c3b7 5488 a7bb 7426 89bc
00000090: a152 77bd 523f 3b3d 13e4 c6bc 596c 523d
000000a0: a7a9 b73d ac3d f53c 015c 99bc b5b2 fdbc
000000b0: fdb6 163d 63c8 803c dc9e 7a3d 5173 0a3d
000000c0: 18ec ee3b f6fd c13c 51c3 973d b61e 6a3d
000000d0: 06e8 433d acce 0ebd 98c4 a0bc d847 86bb
000000e0: 33de 8a3c 6b80 ed3b 6d88 3d3d c32c 3d3d
000000f0: 721f 873c 6b5e afbb 114c 1e3d fb7c 193d

fc1.weight f4 [10, 64]
-0.01221731 -0.01634861 -0.1326249 0.13750146 0.14577329 -0.12070065 0.017018883 -0.108275086
0.16145611 -0.076547444 0.13664828 -0.17175464 0.08556779 0.0001305026 -0.049744595 -0.028321346
0.13138051 -0.15868102 0.1783288 -0.1453394 0.04647724 0.004643509 -0.017900743 0.007072506
0.010163032 -0.13345994 -0.11851099 -0.05672014 0.1340337 0.11216588 -0.17313473 0.14432202
-0.19320422 -0.21195306 0.034718923 0.007799835 -0.11957309 -0.12243655 -0.015783528 0.023716748
-0.034852475 -0.12525587 -0.18642119 -0.026962133 -0.23768544 -0.065958135 -0.066882886 0.03529988
0.10927386 -0.059277724 0.09981 -0.22973497 0.13795394 -0.1882709 -0.052080754 -0.10229298
0.0772268 -0.09919706 -0.114632145 0.043657713 0.047148857 0.09774575 -0.18688305 -0.19983062
-0.006783433 0.06843859 -0.19976144 0.17376399 -0.23324198 -0.21540451 0.1253468 0.08832608
-0.022435462 -0.0637537 -0.22286008 0.18340303 0.009243825 -0.056443155 0.11186298 -0.11493658
-0.21865778 0.14092132 -0.12956075 -0.2976073 -0.12522657 -0.12894517 0.0961469 0.1495975
0.06615173 -0.1495764 0.18509711 0.03834045 -0.20583956 -0.14386944 0.07528741 -0.04421489
0.19579436 0.042403635 0.11542795 -0.04741607 -0.17981821 0.10876944 -0.09621717 -0.048570443
0.052495837 0.13575904 0.009801167 -0.1802582 0.14640225 -0.069871195 0.1154796 0.22530423
0.039306015 -0.1969534 -0.062431097 0.11122566 -0.3089103 -0.11376702 -0.124321535 0.15629764
-0.08739937 -0.14427523 0.28354245 -0.032153286 -0.13189748 0.09067852 -0.13088095 -0.018207109
-0.0046300027 0.06889139 -0.12579456 -0.1542536 0.09122837 0.06947568 0.1328087 -0.12079189
0.03799504 -0.19536187 -0.012408746 -0.031704042 0.13362806 0.04647255 -0.15589736 0.15447073
0.11779996 -0.10267844 -0.15860932 -0.14463064 0.010719027 -0.033245582 0.00018777873 0.15457736
-0.19459157 -0.17839687 0.21620475 -0.11975424 -0.036535874 0.092167005 0.030961007 -0.025421208
0.01903587 0.008997532 0.015707217 0.06864666 0.08053128 -0.07256772 -0.15679778 0.054044183
-0.12122965 0.06689775 0.0633735 0.08945995 -0.1417413 -0.102552906 -0.0150007345 -0.048957348
0.09210877 0.0040220805 -0.09617887 -0.3127435 -0.08596172 0.07928113 -0.07175426 0.07414312
-0.027574588 -0.18331456 -0.17447852 -0.0033231056 0.12385321 0.13401188 -0.12704651 0.14110416
-0.054789066 -0.15747976 -0.10974181 -0.091008514 0.0069684377 -0.029161181 -0.058290705 0.10715633
-0.10085689 -0.091570415 -0.028782029 0.09863564 0.08680062 -0.10259404 -0.011338269 0.17722708
0.0005033481 0.037374377 -0.19321781 0.05432868 -0.118096866 -0.09472823 -0.077178665 0.1649508
-0.25002372 0.09665956 0.056374002 0.015498725 -0.08839534 -0.17017847 -0.03437913 -0.12228658
-0.16984004 0.0032710112 -0.012860766 0.089639984 0.029638918 -0.13137521 0.06374768 -0.01766565
-0.055699576 0.14334507 -0.16627762 -0.077149376 -0.10320039 0.06742477 0.056183048 -0.2657283
0.19427918 0.08911864 -0.11693216 0.036212847 -0.16399966 -0.17744541 0.07339195 0.029299926
0.08842072 0.04598258 -0.089257486 -0.19296233 0.13260068 0.15047082 0.12503964 0.09506582
00000000: 1d2b 48bc 85ed 85bc d2ce 07be 2fcd 0c3e
00000010: 9845 153e e731 f7bd 2f6b 8b3c 54bf ddbd
00000020: c054 253e e8c4 9cbd 87ed 0b3e 73e0 2fbe
00000030: 2a3e af3d 86d7 0839 fdc0 4bbd 2b02 e8bc
00000040: 9d88 063e 477d 22be d39b 363e dad3 14be
00000050: eb5e 3e3d 9428 983b 94a4 92bc 7bc0 e73b
00000060: d982 263c b9a9 08be e4b5 f2bd 6153 68bd
00000070: 2140 093e 3ab7 e53d 3b4a 31be 27c9 133e
00000080: 54d7 45be 390a 59be 6e35 0e3d c295 ff3b
00000090: bce2 f4bd 04c0 fabd 754c 81bc a049 c23c
000000a0: 78c1 0ebd 1343 00be 32e5 3ebe b1df dcbc
000000b0: d063 73be 0f15 87bd e5f9 88bd 9b96 103d
000000c0: f9ca df3d 33cd 72bd 2f69 cc3d a53f 6bbe
000000d0: cc43 0d3e 16ca 40be a152 55bd fb7e d1bd
000000e0: 1629 9e3d d427 cbbd 42c4 eabd 6ed2 323d
000000f0: 291f 413d ec2e c83d 455e 3fbe 66a0 4cbe
00000100: 8f47 debb 8829 8c3d 438e 4cbe 30ef 313e
00000110: fcd6 6ebe 0093 5cbe e95a 003e 4ee4 b43d
00000120: 93ca b7bc 4d91 82bd 6f35 64be 01ce 3b3e
00000130: 6a73 173c f030 67bd 6b18 e53d df63 ebbd
00000140: d3e7 5fbe ae4d 103e 93ab 04be fc5f 98be
00000150: 653b 00be 340a 04be aae8 c43d 1630 193e
00000160: 8f7a 873d 8e2a 19be 198a 3d3e e00a 1d3d
00000170: 9bc7 52be 8352 13be 4930 9a3d ac1a 35bd
00000180: 517e 483e 6faf 2d3d 7d65 ec3d 5a37 42bd
00000190: 4422 38be 83c2 de3d 820d c5bd cdf1 46bd
000001a0: e005 573d 6b04 0b3e 1395 203c 9b95 38be
000001b0: 79ea 153e a118 8fbd 9280 ec3d 27b6 663e
000001c0: 58ff 203d 27ae 49be c0b7 7fbd 47ca e33d
000001d0: 7e29 9ebe affe e8bd 4a9c febd 7d0c 203e
000001e0: 71fe b2bd e3bc 13be 7a2c 913e 2ab3 03bd
000001f0: 2210 07be a9b5 b93d a805 06be 1327 95bc
00000200: 47b7 97bb ee16 8d3d 4ad0 00be a8f4 1dbe
00000210: f1d5 ba3d 4449 8e3d 01ff 073e bd61 f7bd
00000220: b0a0 1b3d f10c 48be 0e4e 4bbc 19dc 01bd
00000230: cbd5 083e 005a 3e3d 8fa3 1fbe 932d 1e3e
00000240: 1b41 f13d 1349 d2bd 7b6a 22be 0e1a 14be
00000250: dc9e 2f3c 852c 08bd 78e6 4439 8749 1e3e
00000260: 0343 47be abad 36be c764 5d3e b641 f5bd
00000270: a4a6 15bd 0ec2 bc3d f0a1 fd3c 2340 d0bc
00000280: 1df1 9b3c 626a 133c 6cac 803c 9f96 8c3d
00000290: 95ed a43d 639e 94bd 998f 20be 6f5d 5d3d
000002a0: 4047 f8bd b001 893d f7c9 813d c736 b73d
000002b0: a224 11be 4207 d2bd a4c5 75bc 8087 48bd
000002c0: 86a3 bc3d a8cb 833b 6df9 c4bd eb1f a0be
000002d0: b30c b0bd 255e a23d e6f3 92bd 59d8 973d
000002e0: 1ae4 e1bc d0b6 3bbe 7faa 32be 76c8 59bb
000002f0: c0a6 fd3d 693a 093e 7b18 02be 9c7d 103e
00000300: 806a 60bd 6042 21be 50c0 e0bd ac62 babd
00000310: 7e57 e43b 6ee3 eebc 3cc2 6ebd c774 db3d
00000320: 0f8e cebd 4589 bbbd 4ac8 ebbc 7c01 ca3d
00000330: 86c4 b13d d31c d2bd 26c4 39bc 047b 353e
00000340: 1ff3 033a e015 193d e4da 45be c087 5e3d
00000350: c5dc f1bd e000 c2bd d90f 9ebd dde8 283e
00000360: 1c03 80be 73f5 c53d 6de8 663d 5dee 7d3c
00000370: 9e08 b5bd 4443 2ebe 21d1 0cbd 6371 fabd
00000380: 8cea 2dbe 765e 563b f6b5 52bc 2b95 b73d
00000390: 51cd f23c 3987 06be 258e 823d 8eb7 90bc
000003a0: 3d25 64bd 0dc9 123e ae44 2abe 7e00 9ebd
000003b0: ba5a d3bd ff15 8a3d 3220 663d 8a0d 88be
000003c0: 1ff1 463e d583 b63d 217a efbd ec53 143d
000003d0: 87ef 27be 40b4 35be 854e 963d 6606 f03c
000003e0: ec15 b53d 3b58 3c3d a1cc b6bd eb97 45be
000003f0: 79c8 073e 0615 1a3e 640a 003e deb1 c23d

fc1.bias f4 [10]
-0.09080406 0.14940469 0.0451347 0.08689016 0.075219706 -0.058588978 0.009096648 -0.004163718
0.045459323 0.028680936
00000000: 7bf7 b9bd 8bfd 183e 2adf 383d 78f3 b13d
00000010: ca0c 9a3d fffa 6fbd 1b0a 153c cc6f 88bb
00000020: 8e33 3a3d 48f4 ea3c
