best_mnist_model.pt (torch_old, 350357 bytes, 6 tensors)

conv1.weight f4 [8, 1, 3, 3]
-0.51005936 0.29758915 0.10170246 0.06303453 0.21647586 0.029768305 0.111730866 0.087736845
0.09362279 -0.16635124 -0.0921724 0.014783132 0.26876885 0.3710196 0.6034101 -0.16225737
-0.339398 -0.66593266 -0.62102646 -0.36899057 0.20948693 -0.7308603 0.097014956 0.5145719
-0.84013575 0.22037567 0.30597734 0.56218565 0.3298832 -0.3812505 -0.3788299 -0.20666295
0.21682256 -0.30973646 -0.016375694 -0.13007693 0.30035663 0.14321291 0.5159407 -0.26418513
-0.0895234 0.23750119 -0.8520611 -0.4882748 -0.58771336 -0.3441355 -0.8973569 -0.7377467
0.41729453 -0.004072667 0.035359662 0.49245894 0.18609121 -0.20266293 0.19582935 0.26630303
-0.4960254 0.21911414 0.2760568 -0.0698977 -0.056684658 0.16729407 -0.04778116 -0.08591685
-0.51717347 -0.57193315 0.25315556 0.13335733 0.21740936 0.06951005 0.33473316 0.24238561
00000000: 4093 02bf 9b5d 983e 6149 d03d 3f18 813d
00000010: d9ab 5d3e a9dc f33c 27d3 e43d 60af b33d
00000020: 4ebd bf3d fb57 2abe e2c4 bcbd f334 723c
00000030: 129c 893e 48f6 bd3e 1679 1a3f cc26 26be
00000040: 93c5 adbe 907a 2abf 97fb 1ebf 55ec bcbe
00000050: be83 563e a919 3bbf c7af c63d fcba 033f
00000060: 2313 57bf 29aa 613e 10a9 9c3e 66eb 0f3f
00000070: 73e6 a83e 4433 c3be fef5 c1be 749f 53be
00000080: bc06 5e3e c795 9ebe 5226 86bc e332 05be
00000090: 58c8 993e 68a6 123e b114 043f 4643 87be
000000a0: 0b58 b7bd 8333 733e ad20 5abf 28ff f9be
000000b0: 6274 16bf 8732 b0be 2fb9 65bf f8dc 3cbf
000000c0: a1a7 d53e 0274 85bb 4bd5 103d 9423 fc3e
000000d0: b28e 3e3e df86 4fbe 7d87 483e df58 883e
000000e0: 0bf7 fdbe 755f 603e 5157 8d3e 8626 8fbd
000000f0: 2c2e 68bd 234f 2b3e 2db6 43bd 2cf5 afbd
00000100: 7b65 04bf 366a 12bf 9b9d 813e d38e 083e
00000110: 8fa0 5e3e 495b 8e3d 2562 ab3e ef33 783e

conv1.bias f4 [8]
-0.20378408 -0.097003974 -0.4492729 -0.12926136 -0.33622637 -0.3123159 -0.18687662 -0.0850769
00000000: c6ac 50be 05aa c6bd 1907 e6be 175d 04be
00000010: dd25 acbe dfe7 9fbe 965c 3fbe cc3c aebd

fc0.weight f4 [64, 1352]
0.015990771 -0.015219277 -0.016857008 0.03625192 0.02154745 0.03398179 0.023654075 -0.009649966
0.013741714 0.0076651177 -0.027326766 -0.020077145 0.008128127 0.005553557 -0.00852107 0.022073034
0.089278206 0.03857732 0.069846675 0.04488036 -0.01933045 -0.040957298 -0.010599909 -0.040943485
-0.0157616 -0.0011263933 0.012249443 0.028207839 0.04785502 0.050472237 0.06892066 0.067455135
0.0006962699 -0.026404314 -0.07315041 -0.06703489 -0.08341924 -0.040086664 0.013048128 -0.0057229507
0.020580146 0.0138225015 0.057024155 0.068478554 -0.0028742573 0.019820824 -0.05538439 -0.026338464
-0.00042761877 0.01657028 0.0001435563 -0.0076292837 0.023904053 -0.00021343653 -0.011566035 0.007749311
-0.022490263 -0.10752875 -0.018401926 -0.027242051 0.017674083 -0.03481592 0.047721166 0.021533722
0.016402936 0.012536772 -0.041804127 0.03296255 -0.020562377 -0.013975642 -0.1762114 -0.1554359
-0.02198858 -0.046110526 0.009585641 0.048506994 0.033988763 0.023244867 0.0060509574 -0.0361695
-0.056519236 -0.046241358 -0.024941143 -0.08310892 -0.02379436 0.006586617 -0.013675069 0.006893803
0.10973643 0.08848121 0.046503704 0.026760427 -0.038320433 -0.050254334 -0.09381055 0.02459185
-0.010997865 0.09092912 0.08883158 -0.014563414 -0.004616153 0.040012993 0.0069016353 -0.0075360932
-0.007570053 -0.06306298 -0.02918768 -0.093689956 -0.043391228 0.08515168 0.23011683 0.1291456
0.062131625 0.035954446 -0.032539032 -0.019981425 0.027215349 -0.028807888 -0.015857928 -0.08521883
-0.10826277 -0.056258928 0.17549163 0.16487074 0.09995819 0.03814628 -0.05063305 -0.104740396
-0.064138256 0.027268318 0.018797107 -0.011316206 -0.042817686 -0.07769737 0.024783948 0.11819338
0.0021216057 0.040145688 -0.09713051 -0.112534896 -0.07991304 -0.06448133 -0.008242945 0.013806181
-0.0015346213 0.018180808 0.0008392995 0.020583 0.06990755 0.023355942 -0.0009930545 -0.0677288
-0.091780774 -0.039719623 -0.016110001 -0.024530187 -0.024876015 -0.003184518 0.0316819 0.028112063
0.020495463 0.0061391806 0.03663509 -0.010480437 -0.0293966 -0.01277075 -0.007796409 -0.019300953
0.000941143 0.015570859 0.0068435455 -0.009092285 0.01602707 0.022025498 0.006481511 0.0025980114
0.029782195 0.029967083 -0.009222491 0.029583061 0.009972224 -0.01492359 0.018280951 -0.0127989
0.03204403 -0.00674709 0.015270994 -0.020022204 0.0010012698 0.021777153 -0.016001493 -0.016140973
-0.031674072 -0.010398761 -0.015016502 0.0024421315 -0.0026685216 0.028114194 0.04080191 0.0005668279
0.021327564 -0.02058101 -0.03744276 -0.015748646 -0.015265759 -0.006382013 -0.009196463 -0.014215893
0.015978035 0.015955478 0.031944413 0.02414612 0.054115463 0.01963046 -0.03546404 -0.033865787
0.005375139 0.05736468 0.02858987 -0.0006072908 -0.009167352 -0.008193222 -0.025718816 0.028002307
0.034916546 -0.023965348 0.006629099 -0.041892715 -0.03541892 0.007700609 0.06496722 -0.0089495
-0.0065677348 0.023252133 0.009512549 0.0055032303 0.028225837 0.05892483 0.08607445 -0.06431125
-0.1938008 -0.112133466 -0.00049520715 0.059146166 0.016328154 -0.019918464 0.01255323 0.012444959
0.024729818 0.006069495 0.08485923 0.075037986 -0.17254762 -0.16778861 0.009840772 0.08471416
00000000: 14ff 823c 465a 79bc b517 8abc e57c 143d
00000010: 4784 b03c 7d30 0b3d 31c6 c13c e41a 1ebc
00000020: ed24 613c ab2b fb3b 62dc dfbc d378 a4bc
00000030: d62b 053c 9dfa b53b f59b 0bbc 82d2 b43c
00000040: 7ed7 b63d 4003 1e3d c60b 8f3d 78d4 373d
00000050: e45a 9ebc d7c2 27bd 3eab 2dbc 5bb4 27bd
00000060: 791e 81bc 7da3 93ba e3b1 483c 2014 e73c
00000070: a003 443d fabb 4e3d 4626 8d3d eb25 8a3d
00000080: e285 363a dc4d d8bc e2cf 95bd 9749 89bd
00000090: b5d7 aabd ea31 24bd d1c7 553c 9787 bbbb
000000a0: b297 a83c c677 623c 2992 693d 7c3e 8c3d
000000b0: 095e 3cbb 485f a23c beda 62bd c3c3 d7bc
000000c0: 0532 e0b9 65be 873c 9a87 1639 12ff f9bb
000000d0: 6fd2 c33c efcd 5fb9 787f 3dbc efed fd3b
000000e0: 803d b8bc 0938 dcbd a3bf 96bc b92a dfbc
000000f0: 3dc9 903c 239b 0ebd 4577 433d 7d67 b03c
00000100: 735f 863c 0867 4d3c ce3a 2bbd bd03 073d
00000110: 6e72 a8bc 17fa 64bc c370 34be 972a 1fbe
00000120: 6521 b4bc 64de 3cbd 180d 1d3c 45af 463d
00000130: cd37 0b3d 056c be3c 1c47 c63b 7826 14bd
00000140: b780 67bd 9467 3dbd 5e51 ccbc 0235 aabd
00000150: 64ec c2bc 8cd4 d73b 660d 60bc 69e5 e13b
00000160: 7ebd e03d a335 b53d ab7a 3e3d af38 db3c
00000170: e3f5 1cbd 7dd7 4dbd bf1f c0bd d974 c93c
00000180: 6430 34bc 0c39 ba3d 55ed b53d 639b 6ebc
00000190: 1943 97bb aae4 233d 1d27 e23b 55f1 f6bb
000001a0: 350e f8bb 2a27 81bd 001b efbc 85e0 bfbd
000001b0: 00bb 31bd 0164 ae3d bfa3 6b3e bf3e 043e
000001c0: bb7d 7e3d f844 133d a647 05bd 16b0 a3bc
000001d0: b9f2 de3c 85fe ebbc 7ce8 81bc 3687 aebd
000001e0: dfb8 ddbd c36f 66bd 14b4 333e e0d3 283e
000001f0: e1b6 cc3d 463f 1c3d 9a64 4fbd 2282 d6bd
00000200: eb5a 83bd cf61 df3c 64fc 993c 9c67 39bc
00000210: 9961 2fbd cc1f 9fbd b507 cb3c 5f0f f23d
00000220: a30a 0b3b ce6f 243d 5cec c6bd b278 e6bd
00000230: 73a9 a3bd ca0e 84bd 6b0d 07bc 5233 623c
00000240: 5925 c9ba ebef 943c 7004 5c3a ae9d a83c
00000250: b12b 8f3d f654 bf3c 6129 82ba 66b5 8abd
00000260: 8ff7 bbbd 0bb1 22bd 1ff9 83bc 88f3 c8bc
00000270: c9c8 cbbc 59b3 50bb e1c4 013d 454b e63c
00000280: 1ae6 a73c 2e2b c93b ad0e 163d 24b6 2bbc
00000290: 23d1 f0bc 683c 51bc 0579 ffbb 081d 9ebc
000002a0: 0ab7 763a eb1c 7f3c d23f e03b cff7 14bc
000002b0: 344b 833c d16e b43c db62 d43b 6643 2a3b
000002c0: caf9 f33c 877d f53c ee19 17bc 2d58 f23c
000002d0: 8a62 233c 1382 74bc efc1 953c 7ab2 51bc
000002e0: 9a40 033d b116 ddbb 3133 7a3c 9b05 a4bc
000002f0: 0a3d 833a 0066 b23c 9015 83bc 133a 84bc
00000300: acbc 01bd 915f 2abc c607 76bc 2b0c 203b
00000310: 5de2 2ebb bd4f e63c e71f 273d 2d97 143a
00000320: 25b7 ae3c 8299 a8bc 945d 19bd 4e03 81bc
00000330: 3c1d 7abc 3520 d1bb c3ac 16bc c7e9 68bc
00000340: 5ee4 823c 10b5 823c 25d8 023d 15ce c53c
00000350: 2da8 5d3d 0fd0 a03c be42 11bd dab6 0abd
00000360: ef21 b03b 3af7 6a3d 4e35 ea3c 9932 1fba
00000370: a932 16bc dd3c 06bc 44b0 d2bc 1865 e53c
00000380: a704 0f3d fa52 c4bc ea38 d93b b297 2bbd
00000390: 6e13 11bd 6455 fc3b 890d 853d eca0 12bc
000003a0: 2736 d7bb 427b be3c 86da 1b3c 7154 b43b
000003b0: df39 e73c 2a5b 713d cd47 b03d 9eb5 83bd
000003c0: b873 46be 3ba6 e5bd cad0 01ba 4043 723d
000003d0: 9fc2 853c 0c2c a3bc 10ac 4d3c f1e5 4b3c
000003e0: 3096 ca3c 9de2 c63b adca ad3d 84ad 993d
000003f0: 53b0 30be c7d0 2bbe 303b 213c 9e7e ad3d

fc0.bias f4 [64]
0.04534604 0.033186823 -0.06493136 0.026050167 -0.29098722 -0.1836452 0.035990346 0.04182298
-0.17582078 -0.10147184 -0.19868048 0.066785015 -0.0060055684 0.018338826 -0.0110112745 -0.18630882
0.004322106 -0.06727238 0.01829741 -0.17982034 -0.15824758 0.019122409 0.03930001 0.013490644
0.008399561 -0.26574233 0.1110123 -0.0142668355 0.04615885 -0.14434302 -0.091033846 0.062005725
0.051913388 -0.07800972 0.30200806 -0.20402597 -0.16080348 0.24409951 -0.01476795 0.07971138
0.12622677 0.05335458 -0.0420408 -0.16264825 0.002093898 0.031045403 0.054779455 0.31164968
-0.09287667 -0.039117742 0.07216127 -0.021199679 -0.03149061 -0.14002144 -0.13016523 -0.07942503
-0.10570116 0.01451106 0.21163128 0.05657211 -0.118117884 -0.08422496 -0.021005979 -0.03150387
00000000: c5bc 393d e8ee 073d bcfa 84bd 2967 d53c
00000010: 47fc 94be 7d0d 3cbe 9d6a 133d 934e 2b3d
00000020: 5d0a 34be 78d0 cfbd e572 4bbe 95c6 883d
00000030: 5cca c4bb 4e3b 963c a268 34bc bdc7 3ebe
00000040: 74a0 8d3b 1ac6 89bd 73e4 953c d322 38be
00000050: a70b 22be 99a6 9c3c 0cf9 203d dd07 5d3c
00000060: 509e 093c 610f 88be 6b5a e33d 72bf 69bc
00000070: 1011 3d3d a8ce 13be f46f babd b7f9 7d3d
00000080: 22a3 543d 8fc3 9fbd cda0 9a3e 2fec 50be
00000090: aba9 24be 39f5 793e 46f5 71bc b83f a33d
000000a0: 9741 013e 558a 5a3d f932 2cbd 438d 26be
000000b0: c739 093b ee52 fe3c 6c60 603d 8c90 9f3e
000000c0: 2036 bebd ed39 20bd 4ac9 933d f3aa adbc
000000d0: 4cfc 00bd c861 0fbe 094a 05be 97a9 a2bd
000000e0: da79 d8bd ccbf 6d3c dfb5 583e 28b8 673d
000000f0: cae7 f1bd 237e acbd bb14 acbc 340a 01bd

fc1.weight f4 [10, 64]
-0.19009599 -0.18316804 -0.5289282 0.18923396 0.069232404 -0.44479868 -0.1773989 -0.37712127
0.14888686 -0.3703323 0.09281983 -0.49453884 0.108049214 -0.2942574 -0.09794731 -0.27630064
0.12479149 -0.4244735 0.18035232 -0.28426152 -0.022285514 -0.08907875 -0.23256837 0.041638587
0.00088510214 -0.5059579 -0.41812393 -0.06166086 0.14592004 0.08586609 -0.35603255 0.098857276
-0.4364704 -0.4763598 -0.22753061 -0.057311457 -0.4840221 -0.36746258 0.0083689075 -0.2301205
-0.08925487 -0.46751153 -0.3599326 0.003569279 -0.086163245 -0.17309035 -0.29154557 -0.15288971
0.109903894 -0.23463301 0.04997597 -0.6607565 0.049414057 -0.33912653 -0.27924725 -0.18096516
0.022742223 -0.30166352 -0.46988842 -0.04558119 -0.03632872 0.014305499 -0.44963998 -0.39507285
0.03262582 -0.023955222 -0.38435906 0.19959097 -0.35262355 -0.44219518 0.23883545 0.2371057
-0.11727611 -0.37893528 -0.37999663 0.036752276 -0.3740631 -0.374731 -0.04591321 -0.2426147
-0.42012033 -0.020975437 -0.2558871 -0.5504513 -0.5952673 -0.47991943 0.03766204 0.18258628
-0.15043864 -0.32033363 0.1736619 0.1396181 -0.28827032 -0.27516133 0.03370074 -0.3784644
0.19999579 -0.084455565 0.30990693 -0.24339008 -0.38648224 0.38119623 -0.04315579 0.02244567
-0.2148865 0.20115612 -0.03729738 -0.4231806 0.07918265 -0.2158012 0.19046645 0.17954105
-0.010701648 -0.24675533 -0.22808383 -0.05916833 -0.6236649 -0.2711774 -0.27171594 0.024867278
-0.29346302 -0.40657386 0.3463237 -0.015285549 -0.062189348 -0.03131988 -0.17201966 -0.0056196586
-0.012433365 0.112963565 -0.3893546 -0.469178 0.17560582 0.064185046 0.14755458 -0.38497055
0.061668888 -0.4903136 -0.076265655 -0.27060857 0.19227159 -0.018528003 -0.488667 0.08893881
0.17944653 -0.20777665 -0.4581588 -0.2982313 -0.1655913 0.008678441 -0.045252882 0.07091973
-0.5124877 -0.53264654 0.18858314 -0.13197318 -0.39958882 0.027822742 -0.112830065 -0.09691607
0.041085955 -0.07144221 -0.8129579 -0.023166534 0.07208921 -0.6414324 -0.11859146 0.020758653
-0.17082633 -0.0520323 0.0074685207 0.036938153 -0.056988176 -0.474274 -0.024986885 0.034199573
-0.052402563 -0.29187992 -0.66677296 -0.6370789 -0.31667933 0.037773963 -0.35793403 0.0028959066
-0.30615407 -0.5242931 -0.55119735 -0.14510553 0.111636996 0.02531087 -0.6399762 -0.042715643
-0.45823303 -0.37977108 -0.47588187 -0.65956205 -0.09166202 -0.22473416 -0.4522999 -0.053943023
-0.2983968 -0.38074118 -0.1224587 0.27532455 -0.110648334 -0.38822266 0.008160879 0.019342298
-0.34721565 0.06641217 -0.39466703 0.06871861 -0.29437244 -0.23218174 -0.46269763 0.16256677
-0.5350519 0.044552684 -0.06355777 -0.033466898 -0.15620372 -0.32515886 -0.07808844 -0.4893583
-0.66190886 0.10181915 -0.7336598 0.01054824 -0.17930743 -0.6865998 0.07673578 -0.4517298
-0.1733762 0.21676 -0.39982018 -0.27590063 -0.06424669 -0.007053526 -0.09748908 -0.7965387
0.1404275 0.01586946 -0.63213843 0.06650901 -0.51647365 -0.2992985 0.10737241 -0.06734661
-0.033699777 -0.18692964 -0.95595866 -0.5198206 0.0155964 0.09933896 0.09189119 0.06447353
00000000: 86a8 42be 6790 3bbe d767 07bf 8cc6 413e
00000010: b8c9 8d3d a7bc e3be 0fa8 35be 0a16 c1be
00000020: cc75 183e 329c bdbe 5318 be3d 3234 fdbe
00000030: e848 dd3d e8a8 96be 9998 c8bd 4777 8dbe
00000040: ae92 ff3d 9754 d9be 47ae 383e ba8a 91be
00000050: 1c90 b6bc eb6e b6bd 6726 6ebe 398d 2a3d
00000060: 3306 683a 7586 01bf 5714 d6be 1990 7cbd
00000070: 106c 153e 90da af3d e649 b6be af75 ca3d
00000080: 0c79 dfbe 6fe5 f3be c9fd 68be 6bbf 6abd
00000090: bfd1 f7be 0e24 bcbe be1d 093c b5a4 6bbe
000000a0: 42cb b6bd ac5d efbe 1649 b8be 91ea 693b
000000b0: 5b76 b0bd 993e 31be 7645 95be 1f8f 1cbe
000000c0: 4b15 e13d a343 70be 9ab3 4c3d 5727 29bf
000000d0: 6566 4a3d fea1 adbe 7ff9 8ebe ee4e 39be
000000e0: e64d ba3c a473 9abe 3795 f0be 58b3 3abd
000000f0: 6dcd 14bd 9d61 6a3c 3637 e6be fd46 cabe
00000100: a7a2 053d be3d c4bc b6ca c4be 9361 4c3e
00000110: 138b b4be 6867 e2be 4891 743e d6cb 723e
00000120: 752e f0bd ce03 c2be eb8e c2be 8e89 163d
00000130: 3385 bfbe bedc bfbe 7d0f 3cbd fd6f 78be
00000140: 031a d7be aed4 abbc a203 83be 60ea 0cbf
00000150: 7063 18bf 00b8 f5be 8343 1a3d e6f7 3a3e
00000160: 960c 1abe c502 a4be 6dd4 313e 0cf8 0e3e
00000170: 2b98 93be f2e1 8cbe ca09 0a3d 16c6 c1be
00000180: b2cb 4c3e 0af7 acbd 1fac 9e3e 403b 79be
00000190: 00e1 c5be 272c c33e 20c4 30bd fbdf b73c
000001a0: 350b 5cbe dffb 4d3e 23c5 18bd 21ab d8be
000001b0: 832a a23d fdfa 5cbe a309 433e 9cd9 373e
000001c0: f755 2fbc 6ead 7cbe cf8e 69be 7e5a 72bd
000001d0: 81a8 1fbf c4d7 8abe 5a1e 8bbe 76b6 cb3c
000001e0: c940 96be 732a d0be 5751 b13e 3d70 7abc
000001f0: 42ba 7ebd 4649 00bd ec25 30be 1d25 b8bb
00000200: 50b5 4bbc 7159 e73d 7c59 c7be 1938 f0be
00000210: 03d2 333e 7373 833d 8c18 173e dc1a c5be
00000220: 8498 7c3d 620a fbbe 2b31 9cbd 358d 8abe
00000230: d8e2 443e 0ac8 97bc 9032 fabe 8d25 b63d
00000240: d5c0 373e 67c3 54be ca93 eabe c6b1 98be
00000250: c490 29be 0530 0e3c 165b 39bd 5d3e 913d
00000260: 6532 03bf 865b 08bf f01b 413e fa23 07be
00000270: e896 ccbe 85ec e33c 7313 e7bd ef7b c6bd
00000280: bf49 283d 4b50 92bd 021e 50bf bec7 bdbc
00000290: 82a3 933d ea34 24bf 14e0 f2bd 0d0e aa3c
000002a0: 19ed 2ebe d21f 55bd 7eba f43b 764c 173d
000002b0: 6f6c 69bd 0bd4 f2be 4cb1 ccbc da14 0c3d
000002c0: 12a4 56bd 4971 95be a2b1 2abf 9a17 23bf
000002d0: cb23 a2be dfb8 1a3d 2143 b7be 40c9 3d3b
000002e0: 3ac0 9cbe 1338 06bf 451b 0dbf 8b96 14be
000002f0: f0a1 e43d be58 cf3c 7bd5 23bf 99f6 2ebd
00000300: 859d eabe 5b71 c2be caa6 f3be 0fd9 28bf
00000310: 4cb9 bbbd b620 66be da93 e7be 5cf3 5cbd
00000320: 77c7 98be 82f0 c2be a0cb fabd 57f7 8c3e
00000330: 989b e2bd 1fc5 c6be 35b5 053c bd73 9e3c
00000340: 40c6 b1be 1b03 883d cc11 cabe 58bc 8c3d
00000350: fcb7 96be 0dc1 6dbe b4e6 ecbe e777 263e
00000360: 29f9 08bf e07c 363d 932a 82bd 9614 09bd
00000370: def3 1fbe 397b a6be d5ec 9fbd 2c8d fabe
00000380: dc72 29bf 8f86 d03d 21d1 3bbf 86d2 2c3c
00000390: 5e9c 37be 01c5 2fbf a627 9d3d 2149 e7be
000003a0: 8889 31be 55f6 5d3e 3bb5 ccbe d942 8dbe
000003b0: c593 83bd 4421 e7bb 5ba8 c7bd f6e9 4bbf
000003c0: 3acc 0f3e ab00 823c d3d3 21bf e035 883d
000003d0: 9e37 04bf a73d 99be 11e6 db3d 05ed 89bd
000003e0: c708 0abd 7c6a 3fbe b5b9 74bf f612 05bf
000003f0: 0b88 7f3c 3a72 cb3d 7331 bc3d b30a 843d

fc1.bias f4 [10]
-0.1449049 0.29706654 -0.124343865 -0.10224343 0.05429977 -0.19256921 -0.07449358 -0.08300912
-0.11453084 -0.044079255
00000000: f361 14be 1b19 983e ffa7 febd 0165 d1bd
00000010: 7069 5e3d dd30 45be 1790 98bd af00 aabd
00000020: 258f eabd 738c 34bd
