best_mnist_model_8.pt (torch_old, 350357 bytes, 6 tensors)

conv1.weight f4 [8, 1, 3, 3]
00000000: 2716 a4be 9ed7 9a3e bcf0 a33c 3d32 673e
00000010: e5bc 573e 5483 213d 9d8e 403e 2d8c 3c3e
00000020: 50e2 473e 3cec 8cbe a238 cfbb 538d c73d
00000030: ab85 e73d bf54 2f3e 05c1 d43e b548 0f3e
00000040: 3e5d 6fbd a16d 80be 8b84 e7be 7e19 9dbd
00000050: 95e7 803e a1af f9be 1c31 423e 2d9f e43e
00000060: 701b 1abf 8fd5 a23e 662b aa3e 4017 f43e
00000070: 693e d33e d687 22be c5fa acbe af98 19be
00000080: 2d94 a53e a660 6dbe 2511 693b 8bad 5fbe
00000090: f0f1 f33e 46b3 263e 5071 0e3f 30b5 cabd
000000a0: 92a4 24be 8a27 893e 0898 29bf 3b24 a6be
000000b0: c149 a2be 98fe 92be feab 57bf 77ec 34bf
000000c0: d241 c13e 9d92 7a3d 8328 993e 0d8b 1b3f
000000d0: 0ba2 9d3e a689 17bd c6b9 8a3e c8d5 7f3e
000000e0: 385b 14be 95f8 a63e a2d6 af3e 3e6f a83e
000000f0: d40b f3bd 7cab 7a3c 787e 1abc f53b 8dbd
00000100: ac59 fdbe 4b59 0bbf 4319 9d3e f27a f63c
00000110: 78b1 2d3e 8b55 603e 5d5c a43e 5d0c 5b3e
-0.3204815 0.30242628 0.020012252 0.22577758 0.21068151 0.039431885 0.18804403 0.18412848
0.19519925 -0.27523983 -0.00632389 0.09743752 0.11304792 0.17122172 0.41553512 0.1399258
-0.058438532 -0.2508364 -0.4521831 -0.07670878 0.25176683 -0.48766807 0.18964046 0.4465269
-0.60198116 0.31803557 0.33236235 0.47673988 0.41258553 -0.1587213 -0.33785072 -0.1499965
0.32339612 -0.231814 0.0035563197 -0.21843545 0.4764552 0.16279325 0.5564165 -0.0989784
-0.16078404 0.26787978 -0.66247606 -0.32449517 -0.31696895 -0.28709865 -0.84246814 -0.70673317
0.3774553 0.061174978 0.2991372 0.6075905 0.3078769 -0.036996506 0.2709486 0.24983895
-0.14487922 0.32611528 0.3434344 0.3289737 -0.118674904 0.015299674 -0.009429567 -0.068962015
-0.49482477 -0.54433125 0.30683336 0.030087922 0.1696223 0.21907632 0.32101718 0.21391435

conv1.bias f4 [8]
00000000: c264 143e dc79 5e3d 9f58 3cbe 0a27 4d3d
00000010: 8baf 4abd d0c5 aabd 0a97 453e 2805 813d
0.14491561 0.054315433 -0.18393181 0.05008606 -0.049483817 -0.08338511 0.19295898 0.062998116

fc0.weight f4 [64, 1352]
00000000: a003 823c aa36 82bc 9bf3 c8bc 228d 9f3c
00000010: 839b 88bb aa29 763c 314a 0b3c 4594 a7bc
00000020: d32c af3b 6c38 d13b c042 96bc e417 55bc
00000030: 4c42 163c 6847 9c3b 9273 3fbc 55db 11bc
00000040: b8a7 c03c cd87 02bc f99c 503c 90c3 2d3c
00000050: c5d6 97bc fac1 c2bc fa8a d43c 7976 1fba
00000060: fff3 853c 1ad2 b03b b4a2 0d3c 381f a53c
00000070: ffb7 cf3c e0a2 adbc 73cf b7ba f031 813c
00000080: 655c 853c 6d1a 5f3c 7047 b6bc 3a29 acbc
00000090: 04cd 9dbc 68cf 853a 2fb2 dc3c 0892 8dbc
000000a0: 69aa 6b3c 527d 77bc bee6 ebbc e607 22bc
000000b0: e939 593c b738 c03c cfbe 97bc 7e7f 883b
000000c0: 84fa ae3c f3aa 733c a01c 753c 7a60 9d3c
000000d0: 320c 8c3c 6fa2 da3b f919 a9bc 19bf d4bc
000000e0: 185f 68bc 68f7 94bb e659 95bc f191 063c
000000f0: 5e55 d83b c52c 14bc bc3c e43b b86a 013c
00000100: 76cd 863c 5813 953c 2c85 21bc 1f1e c13c
00000110: e537 c8bb 1eb8 1ebb 3e62 e9bc 9660 a3bc
00000120: 5f53 8fbc 1ffd 55bc cc73 823c 5b32 47bc
00000130: 8ea0 a8bc e798 283c 12b6 0c3c d183 8b3c
00000140: 1ace 8bbc 2a4d 403b c928 38bc 43df 10bc
00000150: 0432 bfbc 2d80 6abc aac5 56bc 824a e93b
00000160: 9494 263b 7604 d23b 4b18 dd3c a86f d83c
00000170: 77f2 953c ec57 c9ba b345 b0bc 3a96 983c
00000180: 893c 15bc 0d7d 8abb 3cb5 dabc ed89 29bc
00000190: 1370 b3bc 876a be3c c767 c3bc 72ea aebc
000001a0: 5321 88ba 5e5e 7dbc a47c fe3b 5308 5abc
000001b0: 20b3 8abc 8d45 4fbb 091f 763c 952a c4bc
000001c0: 872b fd3b 68cd 473c 4c60 c93c fc61 a5bc
000001d0: 0fbb bf3b 973c a6bc 5f5b b23c b5e0 46bc
000001e0: 2f6e 763c 3dbc 23bb a81e e6bb c143 c0bb
000001f0: c585 8239 d49d 003c b412 88b8 aeaf c83b
00000200: 04a2 cdbc af11 a03c 806f c13c b9a6 b13c
00000210: 9e34 9b3c a237 a9bc d70e 39bc dadc af3c
00000220: 5662 b7bc 4869 c03c 5c1d d0bc dcf9 afbc
00000230: c55e 523c 4a02 a1bc 1a74 cfbb 6c3f a13c
00000240: c432 af3c 12e4 d13c 85bb b1bb ffa3 aabc
00000250: 60c8 d83c 4c19 c0bb 5529 40bc 20e6 b13b
00000260: c142 a2bc 9899 913c 4ecb 8a3c 9f9e b1bc
00000270: 65d5 b7bc bfd3 22bb 807b 393c 1af9 68ba
00000280: 60f8 62bc 7723 083a 9a0e d2bc ad1b 9ebc
00000290: 1dfa 94bc a8a3 b63c 4c8e c33c 9c06 19bc
000002a0: 1e7a 923a 2bcc 393c 97f5 213b a800 6cbc
000002b0: 8a12 743c a875 823c 8361 19bb 06bb 86bb
000002c0: d809 c43c 9e38 bc3c 6eba 84bc 8d88 d33c
000002d0: b98c c23b 6774 9abc cffe 663c 9225 aebc
000002e0: 41b2 c43c 6d1f 95bc 63a4 e63b 9cd6 fb3b
000002f0: 643a c93b 0228 b53c 2e46 45bc 27c4 4abc
00000300: ec9d c7bc 93ed fbba 9255 60bc b0c4 9d39
00000310: b9c6 cdbb 15f5 063c c31c b83c e729 db3b
00000320: c775 26bc 9b1a 74bc 35c2 cbbc 2d11 b63c
00000330: bc30 cdbb c416 973b bf30 6339 a7b1 94bc
00000340: 9efe 6d3c f9fa 6d3c d616 0a3a b5a2 80bc
00000350: 2319 44bc f314 18ba 7f82 82bc a420 7fbc
00000360: b7fa 99bb 47a7 09bc 9d70 be3b 3edf 03bc
00000370: a801 90bb adf2 36bc b0e9 d1bc d232 bb3c
00000380: bee2 833b f8df bd3c 4745 a5bb fe80 edbb
00000390: 7ff5 d7bc 7efc 39bc 4b89 8e3c 8ceb e1bc
000003a0: c804 2abc 8515 813c 6aba 733c 5176 173c
000003b0: 9d52 c9bb 7b54 3fbb 242e bfbb f4e3 32bc
000003c0: 83a0 2a3c 49dc 23bc 747e 81bc 17d1 b13b
000003d0: 2d61 a8bc 8daf d5bb 9f49 563c 948c 193c
000003e0: 684e b73c 0b9d 9ebc debc 12ba c022 16bc
000003f0: e9a1 85bc ef9d 82bc 6dcd d03b 13df 143b
0.01587087 -0.015895206 -0.024530223 0.019476477 -0.004168929 0.015024582 0.008501575 -0.020456443
0.0053459196 0.0063849 -0.018342376 -0.013006184 0.00917108 0.0047692545 -0.011685269 -0.0089023905
0.023517475 -0.007966948 0.012732738 0.010605708 -0.018535027 -0.023774136 0.025945175 -0.00060830225
0.016351698 0.00539614 0.0086447485 0.020156488 0.02535629 -0.021195829 -0.0014023617 0.015770882
0.016279409 0.01361714 -0.02225086 -0.021015752 -0.019262798 0.0010208907 0.026940433 -0.017281547
0.014383891 -0.015105562 -0.02879655 -0.009889578 0.013258436 0.023464544 -0.018523602 0.004165589
0.02135969 0.0148723 0.014960438 0.019211043 0.017095659 0.0066721956 -0.020642268 -0.025970029
-0.014182828 -0.0045460947 -0.018231343 0.008213506 0.0066019734 -0.009043877 0.006965248 0.007898979
0.016455393 0.0181977 -0.009858411 0.023573933 -0.006110179 -0.002421863 -0.028489228 -0.019943517
-0.01749581 -0.013060837 0.015924357 -0.012158002 -0.020584371 0.010290361 0.008588331 0.017030628
-0.01706605 0.0029342868 -0.011240193 -0.008842292 -0.023339279 -0.014312786 -0.01310865 0.0071194777
0.002541815 0.006409223 0.026989123 0.02642043 0.018304093 -0.0015361286 -0.02151761 0.018626321
-0.009108671 -0.004226333 -0.026697747 -0.0103478255 -0.021904027 0.023244156 -0.023853196 -0.021352027
-0.0010385908 -0.015464393 0.007766323 -0.013307649 -0.016931117 -0.003162715 0.015022048 -0.023946086
0.007726136 0.012194969 0.02458205 -0.020188324 0.0058511565 -0.020292563 0.021772085 -0.012138535
0.015040918 -0.0024984025 -0.0070226975 -0.005867452 0.00024895198 0.007850129 -6.488469e-05 0.0061244583
-0.02510167 0.019539682 0.023612738 0.021685945 0.018945988 -0.02065641 -0.011295042 0.021467615
-0.022385757 0.023487702 -0.025404625 -0.021481447 0.012839978 -0.019654412 -0.006330979 0.019683562
0.021386512 0.025621448 -0.0054239654 -0.020830153 0.026462734 -0.0058623906 -0.011728604 0.0054290444
-0.019807221 0.017773435 0.016942646 -0.021682082 -0.022440622 -0.0024845449 0.011320949 -0.00088872167
-0.0138531625 0.0005193273 -0.025641728 -0.019300306 -0.01818567 0.022294834 0.023871563 -0.009339955
0.001117531 0.011340181 0.0024713033 -0.014404453 0.014896998 0.015925243 -0.0023404069 -0.0041116504
0.023930475 0.022976216 -0.016202178 0.025821948 0.0059371856 -0.018854333 0.014098837 -0.02125815
0.02401078 -0.018203462 0.0070386394 0.0076854955 0.006140994 0.022113804 -0.012040658 -0.012375868
-0.024367295 -0.0019220583 -0.013692277 0.00030091917 -0.006279793 0.008237143 0.022474652 0.0066883448
-0.010159916 -0.014898921 -0.024872879 0.022224987 -0.006261913 0.004610868 0.00021666566 -0.018151117
0.0145260375 0.014525169 0.0005267685 -0.015702585 -0.011968884 -0.00058014615 -0.015931366 -0.015571747
-0.004699077 -0.008401698 0.0058117644 -0.008048831 -0.0043947287 -0.011166257 -0.025624126 0.022851381
0.0040248325 0.023178086 -0.005043659 -0.007248043 -0.026362179 -0.011351703 0.01739945 -0.027578138
-0.0103771165 0.015757332 0.014875988 0.009244517 -0.0061438815 -0.0029194641 -0.005834358 -0.010918606
0.010414246 -0.010001251 -0.015807368 0.005426537 -0.02055415 -0.0065211714 0.013079076 0.009371895
0.022376254 -0.019361993 -0.00055976014 -0.0091635585 -0.016312556 -0.01594445 0.006372145 0.002271597

fc0.bias f4 [64]
00000000: 8441 80bc 0eb8 873d dc76 9c3b f974 84bc
00000010: 5ed2 aabd 3f61 81bc 35b4 bcbc f29d 663d
00000020: e393 7ebd f622 d0bc 897f f4bc 0a26 303d
00000030: 297c b23b 2ca8 aa3d dda0 133d c522 d3bc
00000040: 8ae9 3c3d 3f23 09ba f123 3d3d 2b4e 38bd
00000050: 965c 10bd ed5e f23c 1fdf 3b3d ba80 c43c
00000060: e412 883d 50cb 90bd 6909 9e3d 12f8 6abc
00000070: f094 323d 9590 41bd f5b3 aabc eef4 473d
00000080: b226 2f3d d658 6e3c 5140 093d f9e3 6ebd
00000090: 06a7 b3bc 8cb2 a63d c701 53bc a13f 683d
000000a0: b369 a83d d632 333d 42be 9bbc 2cd5 7dbd
000000b0: b629 ca3b f292 af3c ab17 7d3d e1b1 9d3d
000000c0: 5fe4 843b acc5 d93b b706 703d 13e4 a03d
000000d0: 9644 653d b89f 56bd 9cfa fbbb ab04 af3b
000000e0: 08fc 143d 6353 4abc 9615 a73d bf7c 033d
000000f0: 12b3 03bb 5d5a 44bd 89e7 053d e682 6d3d
-0.01565624 0.066269025 0.0047749113 -0.016169058 -0.083409056 -0.01579344 -0.023035148 0.056302972
-0.062152755 -0.025407296 -0.02984597 0.043005027 0.00544693 0.083328575 0.036042083 -0.025773415
0.046121158 -0.00052313873 0.046176855 -0.04499642 -0.035244547 0.02958628 0.04586708 0.023987163
0.06644228 -0.07070029 0.077166386 -0.014341371 0.04359907 -0.047257025 -0.020837763 0.048817568
0.042761512 0.014547547 0.033508603 -0.05832288 -0.021930229 0.08139524 -0.012878842 0.056701306
0.082232855 0.043749653 -0.01901162 -0.061970875 0.006169523 0.021432374 0.06179015 0.07699943
0.0040555443 0.006645879 0.058600154 0.07856002 0.05597361 -0.052398413 -0.007689787 0.0053411326
0.03637317 -0.0123489825 0.08158414 0.03210139 -0.0020095748 -0.04793774 0.032691512 0.057986163

fc1.weight f4 [10, 64]
00000000: f3a5 12bc 66f6 8ebd e9a8 63be ab79 643e
00000010: 44cc 283e cc1c b9bd 4682 72bc 081d 9fbc
00000020: ab7b 4f3e c05c 1bbe 384f 183e 2011 35be
00000030: d3d2 ae3d 2531 abbc c725 98bd 2285 f4bd
00000040: 892c 043e 7927 20be 712b 533e 3bc3 0abe
00000050: 2156 3d3d 85b9 083b 300d b4bd 0008 343d
00000060: 1515 7d3d f892 72be d5e4 d2bd 50ef 61bd
00000070: 8d10 123e 02ab 043e ceed 6bbe 5afc 263e
00000080: a015 59be 7e04 85be c218 653c 3937 0abc
00000090: 47fb dcbd 46b9 4bbe 8fc3 03bd 8c61 463d
000000a0: 3d73 cebc f2f5 3cbe bf32 14be f705 12bd
000000b0: c613 a9bd 4e46 9dbd 1a47 9cbd cfb9 0b3c
000000c0: af2f 173e 15bd cbbd 8f69 cd3d 9815 92be
000000d0: 1439 0f3e 3cc6 41be 258b 23be 7d1f 42be
000000e0: a41a 333d c1ec 6ebe e525 00be b201 ae3d
000000f0: d672 af3d 7433 b83d 4a48 55be 1269 69be
00000100: 837e abbb 24fd c03d a61b 43be 6542 163e
00000110: 1c4e 79be 72bd 8dbd af8f 003e bcf3 1d3e
00000120: 86c6 fabc 2145 9dbd a6fb 54be b9c4 1b3e
00000130: 9f9b b7bd 48f0 4cbe 19de ab3d 3727 20be
00000140: b5f5 4dbe ced3 3a3e d956 1ebe 0f78 7fbe
00000150: ae75 89be 73da 66be d638 e03d 9e5e f83d
00000160: e59f 59bc 2a00 fabd 30f5 503e 243a 1f3d
00000170: 8b03 6dbe 8a1d 11be 7fed b43d 3c6c c7bd
00000180: dfee 4a3e 97bd 01bc 1aa6 613e 7df2 95bc
00000190: 9524 06be 6e90 143e 8095 c0bc 4c5b c4bd
000001a0: 5db9 8ebc 1c8c 2d3e 2fba ec3c e51f 3bbe
000001b0: d666 a23d e671 11be 3487 cb3d 9f8e 683e
000001c0: 8a61 f4bb a7a9 79be ed81 d63c 280e b93d
000001d0: 4fff a5be 57c5 ebbd d180 3ebe 507b 393e
000001e0: d1ac 5c3d 4862 1fbe 0726 963e 1095 9c3c
000001f0: 0b9b 90bd 09a9 af3d bccc a8bd f5b7 fd3b
00000200: 594c ddbb 69af b93d 5e62 3ebe 0bf8 babd
00000210: 8498 d93d ecb2 c63c 38df 1d3e 1eba 51be
00000220: 63d5 a43c db45 93be 17da 84bc c8f8 58bd
00000230: cd07 403e 223e f33d 85bc 41be 7d77 543e
00000240: a105 4e3e 9a4d 26be 44ad 33be fbda 0abe
00000250: 2061 12bd 7686 b1ba dcc7 683d 04e2 e83d
00000260: bc40 82be 754c 83be c9b5 3f3e fa03 ecbd
00000270: 31ad 81bd d832 f33d c56e 7d3d 32ea 81bd
00000280: 5ab1 1d3c e1d0 8c3c 4e61 84bd 4ec1 2c3d
00000290: 5dde c83d fdc4 87bd dc3c 14be 4872 993d
000002a0: 9af3 e1bd 01a0 fcbc 22ff ca3d 2b46 f83d
000002b0: a29f 6bbd 4af4 f4bd 2971 0abd 0714 26bd
000002c0: dbb1 8a3c 8f5e b0bc f3c6 55be e462 bbbe
000002d0: 2a17 a0bd 1015 b93d df4c 9bbd dcd6 a23d
000002e0: 20a8 d6bd 0697 52be 56e7 61be 3e5c 0cbe
000002f0: 1e3b c73d 9034 a63d 5b11 22be bc58 303e
00000300: 9405 57bd 5105 27be d845 d6bc e5ae 2ebe
00000310: 5772 883c b192 3bbd 0ed4 93bd 1139 94bc
00000320: 3d11 98bd 0b06 a8bd 660f 523c 56df 0d3e
00000330: c17d b23d ca15 63be 0795 353d 424f 273e
00000340: a2e2 073c 4e35 e2bd 9277 62be 2265 8e3d
00000350: 7a5d 34be ff88 9cbd 077d d4bd f472 2b3e
00000360: 67c1 64be 8b68 bb3d 0f79 6e3d 9125 013c
00000370: 59ee 00bd 9306 1cbe 7b62 d93b 045c 31be
00000380: 5358 31be f981 8f3c 356d 10be 0bbd 943d
00000390: 40da 8fbc 24df 0abe 0ca3 333e ca1e 18bd
000003a0: 2a68 bbbd 9742 3c3e 6bf7 11be ddb8 0bbe
000003b0: 6f77 71bd a1a4 9c3d ac66 ac3d 5ef8 aebe
000003c0: 4e09 463e 28d9 e13d 29d4 eabd 111a 3d3d
000003d0: e791 22be edec 24be b463 c63d f418 cb3c
000003e0: d625 6d3d 1af4 af3d 6a82 1bbe ce74 12be
000003f0: 3984 0e3e 7206 2e3e ebf7 c63d 6eca ca3d
-0.008950698 -0.069805905 -0.22232403 0.22312038 0.16484171 -0.09038696 -0.014801567 -0.019423023
0.2026202 -0.151721 0.1487397 -0.17682314 0.08536305 -0.020897457 -0.074290805 -0.119394556
0.12907614 -0.15640058 0.2062204 -0.13551037 0.046224717 0.0020862531 -0.08791578 0.043952942
0.061787684 -0.23688877 -0.102975525 -0.055159867 0.14264126 0.1295586 -0.23039934 0.16307202
-0.21199656 -0.2597999 0.0139829535 -0.008436018 -0.10790115 -0.19894895 -0.03216892 0.04843287
-0.025201434 -0.18453196 -0.14472483 -0.03565022 -0.082557246 -0.07679425 -0.07630749 0.008528187
0.14764284 -0.09948174 0.10029899 -0.285321 0.13986617 -0.18923277 -0.15971048 -0.18957324
0.04372658 -0.23332502 -0.12514456 0.08496417 0.08566825 0.08994189 -0.20828357 -0.22793987
-0.005233587 0.09423283 -0.19053516 0.14673765 -0.24346203 -0.069208995 0.12554811 0.15425009
-0.030612241 -0.07679201 -0.20799121 0.15211762 -0.08965229 -0.20013535 0.08391971 -0.1563996
-0.20113261 0.1824486 -0.15462817 -0.24948142 -0.26847595 -0.2254427 0.109483406 0.12127422
-0.013282751 -0.122070625 0.20406032 0.038873807 -0.23145883 -0.14171425 0.08834361 -0.09737441
0.19817685 -0.007918737 0.22036019 -0.018304104 -0.13099892 0.1450822 -0.023508787 -0.09587726
-0.017422372 0.16947979 0.028897373 -0.18273886 0.07929771 -0.14203605 0.09937897 0.22710656
-0.0074579166 -0.24381123 0.026185 0.09035903 -0.32421347 -0.11512249 -0.18603827 0.18113446
0.053875748 -0.15564835 0.29325888 0.019114047 -0.07060822 0.08577163 -0.08242175 0.0077428767
-0.006753486 0.0906666 -0.18592212 -0.09129342 0.10624793 0.024255238 0.15417182 -0.20481154
0.020121282 -0.28764233 -0.016217275 -0.05297163 0.18752976 0.11877085 -0.1891957 0.20748706
0.20119335 -0.1624054 -0.17546564 -0.13560097 -0.035737157 -0.0013544101 0.056831226 0.11371234
-0.25440013 -0.2564427 0.1872169 -0.11524196 -0.06331862 0.11874932 0.061873216 -0.06343497
0.009624803 0.017189445 -0.06463872 0.042176537 0.098080374 -0.066293694 -0.14476341 0.074925005
-0.110327914 -0.030838015 0.09911944 0.121227585 -0.057525285 -0.11960657 -0.033799324 -0.040546443
0.016930511 -0.021529464 -0.20876674 -0.36598885 -0.07816918 0.090372205 -0.075830214 0.079511374
-0.10481286 -0.20565423 -0.22060904 -0.13707063 0.097280726 0.08115494 -0.15826933 0.1722135
-0.052495554 -0.16310622 -0.026156351 -0.17058904 0.016656084 -0.045794193 -0.072181806 -0.018093618
-0.07425163 -0.082042776 0.012821054 0.13854727 0.08715392 -0.2217628 0.044331577 0.16338828
0.00829378 -0.11045323 -0.22115925 0.06952883 -0.17613783 -0.076433174 -0.103754096 0.1674307
-0.22339402 0.09150799 0.05822092 0.007882492 -0.031477306 -0.15236883 0.0066340542 -0.17320257
-0.1731885 0.01751803 -0.14104159 0.072626196 -0.017560124 -0.13561684 0.17542666 -0.037138738
-0.09150727 0.18384777 -0.14254539 -0.13644738 -0.05895179 0.07648588 0.084180206 -0.34173864
0.19339487 0.110277474 -0.114662476 0.046167437 -0.1587597 -0.16106005 0.096869856 0.024792172
0.05789741 0.085914806 -0.15186468 -0.1430237 0.13917626 0.16994646 0.09715255 0.09901892

fc1.bias f4 [10]
00000000: 3e0f c0bd b304 373e 0d86 353d 8a5c 9a3d
00000010: f19c ad3d 7507 92bd bf4a 26bc 04cd b5bb
00000020: 88fa 073d f5e9 a23c
-0.09377907 0.17872886 0.044317294 0.07537182 0.084772 -0.071303286 -0.010149657 -0.0055481214
0.03319791 0.01988695
