best_mnist_model_2.pt (torch_old, 350357 bytes, 6 tensors)

conv1.weight f4 [8, 1, 3, 3]
-0.42027652 0.3284914 0.08470906 0.14090428 0.20292029 0.026171537 0.08773245 0.067597374
0.13145822 -0.49918854 -0.121101305 0.07884609 0.11760508 0.37418255 0.39396122 0.16177541
0.038840167 -0.42879695 -0.48685876 -0.09538981 0.29113045 -0.667392 0.16807336 0.48197433
-0.731102 0.23276007 0.29894543 0.45763156 0.48916867 0.08602927 -0.47195065 -0.1954362
0.29782158 -0.5050868 -0.27467644 -0.47771922 0.29475474 0.16968526 0.56707966 -0.19552828
-0.043285258 0.3395382 -0.781651 -0.5041814 -0.3621758 -0.21086842 -0.89323056 -0.7604566
0.49717483 0.05452819 0.115467526 0.56851906 0.220634 -0.14420365 0.16712151 0.28092927
-0.2530099 0.24626419 0.306829 0.12644845 -0.104744256 0.0659408 -0.08821687 -0.26056728
-0.68599683 -0.76990455 0.259103 0.12113766 0.17520826 0.22243614 0.45463407 0.24043353
00000000: 7c2e d7be 0630 a83e f27b ad3d 3649 103e
00000010: 56ca 4f3e b165 d63c 12ad b33d 7e70 8a3d
00000020: fc9c 063e a495 ffbe f603 f8bd 0f7a a13d
00000030: efda f03d db94 bf3e 49b5 c93e 74a8 253e
00000040: de16 1f3d 468b dbbe 8d45 f9be bc5b c3bd
00000050: 0d0f 953e 34da 2abf 6c1b 2c3e 57c5 f63e
00000060: 8029 3bbf a858 6e3e 600f 993e af4e ea3e
00000070: 5174 fa3e 1d30 b03d 84a3 f1be 6d20 48be
00000080: 127c 983e 5e4d 01bf 64a2 8cbe 9d97 f4be
00000090: 18ea 963e f9c1 2d3e 222c 113f 9138 48be
000000a0: e24b 31bd f3d7 ad3e 481a 48bf 0812 01bf
000000b0: 1b6f b9be e4ed 57be c2aa 64bf 49ad 42bf
000000c0: b38d fe3e f458 5f3d 3d7a ec3d 778a 113f
000000d0: e1ed 613e 1faa 13be e721 2b3e f6d5 8f3e
000000e0: 838a 81be ae2c 7c3e b118 9d3e b47b 013e
000000f0: 2884 d6bd f80b 873d 0cab b4bd 1369 85be
00000100: 7d9d 2fbf 7718 45bf 26a9 843e 0617 f83d
00000110: cb69 333e 4dc6 633e ccc5 e83e 3534 763e

conv1.bias f4 [8]
-0.0071079545 -0.20776264 -0.372635 -0.104818866 -0.27512562 -0.19619824 -0.019188398 -0.10908198
00000000: d8e9 e8bb bbbf 54be 04ca bebe 46ab d6bd
00000010: 44dd 8cbe 31e8 48be fd30 9dbc 6066 dfbd

fc0.weight f4 [64, 1352]
0.016287018 -0.015105191 -0.01623307 0.03608897 0.024236247 0.0355037 -0.0038789383 -0.03080591
0.008875449 0.012000756 -0.015599996 -0.0133820325 0.009194125 0.005913357 -0.010394374 0.0051109046
0.07378434 0.05599928 0.029544832 -0.013464663 -0.036844872 -0.04927523 -0.014970232 -0.03081279
0.005139137 0.00012922288 0.016072797 0.025965758 0.04625819 0.07488874 0.07127273 0.03758988
-0.0071312967 0.022173597 -0.02846969 -0.05965675 -0.027737116 -0.010924908 0.023039589 0.0012341922
0.039647743 0.025330296 0.067565 0.05855214 0.023042979 0.044892255 0.03051485 0.027927333
0.032608896 0.0210165 0.020959219 0.015728762 0.025471505 -0.00060963124 -0.026111847 0.04493809
0.022198508 -0.02873437 0.016758548 0.07401431 0.030328339 -0.033199828 0.013628632 0.00719601
0.021044252 0.008992389 -0.06088569 -0.019113407 -0.016272128 -0.07095023 -0.22151172 -0.15893689
-0.010546825 -0.033197824 0.011613639 -0.023284663 -0.013628785 0.021290524 0.0036918288 -0.04642387
-0.09070561 -0.0655792 -0.082174666 -0.14574802 -0.069060884 0.03855194 0.0036426263 0.02836244
0.034108803 0.023539634 0.036477294 0.027494889 -0.03838447 -0.0851408 -0.109692626 -0.019541524
-0.008504091 0.056114767 0.052397314 -0.0059723537 -0.029299906 0.023768358 -0.017009461 -0.01149594
-0.004912084 -0.06958958 -0.043820053 -0.07305396 -0.027158782 0.07978648 0.17084198 0.06822463
0.022378217 -0.047301073 -0.044235416 -0.04121824 0.009418723 -0.023101965 -0.0025593117 -0.0518909
-0.008964769 0.038858365 0.110876516 0.10471799 0.08491045 -0.03174898 -0.11719818 -0.10067136
-0.07186129 0.013630188 0.019381214 0.018291622 0.025728246 -0.011691677 -0.0070016296 0.07157747
0.025323838 0.071872704 -0.071865015 -0.08687551 -0.048567567 -0.038911134 -0.0075251544 0.014307937
0.02431891 0.080239244 0.016513133 -0.0046618115 0.081165254 0.05078585 0.04356883 -0.025442677
-0.06896545 -0.016395241 0.0002415883 -0.022461575 -0.023223279 0.01258288 0.03811679 0.0059964675
0.011036247 0.021397855 0.008989961 0.0021462278 -0.037943136 0.0015691349 0.007904727 -0.020484861
0.0016683835 0.021442309 0.012626771 -0.0023958175 0.032400284 0.036385734 0.020294625 -0.0009781905
0.021433726 0.033708993 -0.00957131 0.030365668 0.015562715 -0.008874414 0.023876147 -0.010154644
0.04312033 0.007947506 0.039848495 -0.0037435389 -0.005464464 0.015099004 -0.0053971354 -0.025243986
-0.030321652 0.003164967 -0.0054644686 0.01001403 0.0020255442 0.025331812 0.071655296 0.028749181
0.0061448235 0.0020330916 0.026644459 0.09792798 0.00864813 0.031984285 0.0028683734 -0.005799411
0.032569364 0.028186698 0.005447441 0.018588267 0.02669299 0.009581036 -0.045545552 0.03828639
0.046467815 0.024561191 0.009334758 0.011756066 0.0059201065 0.012042739 -0.027241291 0.025187777
0.041986432 0.027504265 -0.030340115 0.025634035 0.020112112 -0.010841158 0.018367533 0.009722304
-0.00094878476 0.025630772 0.01918347 -0.0011117964 0.007667229 -0.0075679594 -0.030420626 -0.11404949
-0.12554662 -0.02552086 -0.008610816 0.049664292 -0.0050100368 0.012110228 0.028779726 0.0168196
-0.005686957 -0.014082915 0.06903605 -0.0053604 -0.10075487 -0.04202102 0.103343874 0.0518811
00000000: 5a6c 853c c37b 77bc 37fb 84bc 07d2 133d
00000010: 188b c63c 546c 113d c935 7ebb ad5c fcbc
00000020: 556a 113c d29e 443c 2097 7fbc 5040 5bbc
00000030: f5a2 163c d5c4 c13b 2a4d 2abc 6079 a73b
00000040: 3e1c 973d 805f 653d 0108 f23c e49a 5cbc
00000050: a6ea 16bd d3d4 49bd b445 75bc 1b6b fcbc
00000060: 3566 a83b 0180 0739 19ab 833c 24b6 d43c
00000070: 3a79 3d3d 455f 993d 70f7 913d d9f7 193d
00000080: a7ad e9bb 67a5 b53c 4439 e9bc a35a 74bd
00000090: f338 e3bc 63fe 32bc 85bd bc3c 9ec4 a13a
000000a0: ac65 223d 7b81 cf3c 855f 8a3d 5ed4 6f3d
000000b0: a1c4 bc3c f1e0 373d 47fa f93c ddc7 e43c
000000c0: e890 053d cc2a ac3c abb2 ab3c 9bd9 803c
000000d0: 9ea9 d03c a9cf 1fba 83e8 d5bc 0111 383d
000000e0: a5d9 b53c 5764 ebbc 3949 893c d194 973d
000000f0: 2373 f83c 8bfc 07bd a04a 5f3c 82cc eb3b
00000100: ff64 ac3c d054 133c 4663 79bd b893 9cbc
00000110: 204d 85bc 5b4e 91bd f8d3 62be 5ac0 22be
00000120: 97cc 2cbc 71fa 07bd 2247 3e3c 7abf bebc
00000130: 444b 5fbc 7769 ae3c 9cf2 713b f526 3ebd
00000140: ddc3 b9bd 634e 86bd 314b a8bd f83e 15be
00000150: cb6f 8dbd a4e8 1d3d 21b9 6e3b 5958 e83c
00000160: acb5 0b3d 31d6 c03c 3769 153d f63c e13c
00000170: 0939 1dbd 4d5e aebd 87a6 e0bd 8c15 a0bc
00000180: be54 0bbc 99d8 653d 919e 563d bcb3 c3bb
00000190: 5b06 f0bc dcb5 c23c 6d57 8bbc 7859 3cbc
000001a0: 8cf5 a0bb fb84 8ebd a87c 33bd 519d 95bd
000001b0: 187c debc 1867 a33d 33f1 2e3e 5bb9 8b3d
000001c0: 8652 b73c c5be 41bd 3230 35bd 75d4 28bd
000001d0: fd50 1a3c 5540 bdbc 20ba 27bb 8d8b 54bd
000001e0: f7e0 12bc f329 1f3d 3a13 e33d 6376 d63d
000001f0: 88e5 ad3d 380b 02bd 9905 f0bd c92c cebd
00000200: 032c 93bd 2751 5f3c 5ac5 9e3c 50d8 953c
00000210: 0bc4 d23c 738e 3fbc ed6d e5bb 3597 923d
00000220: f073 cf3c ff31 933d f72d 93bd caeb b1bd
00000230: c9ee 46bd 4861 1fbd 9295 f6bb d66b 6a3c
00000240: 7338 c73c 7954 a43d 8d46 873c 1cc2 98bb
00000250: f839 a63d d304 503d 3b75 323d 296d d0bc
00000260: c23d 8dbd 504f 86bc de52 7d39 5601 b8bc
00000270: bf3e bebc 6d28 4e3c 5a20 1c3d 047e c43b
00000280: 60d1 343c 8e4a af3c a14a 133c baa7 0c3b
00000290: 436a 1bbd 6eab cd3a d482 013c decf a7bc
000002a0: a9ad da3a c8a7 af3c 84e0 4e3c 2603 1dbb
000002b0: 29b6 043d 3509 153d ea40 a63c a036 80ba
000002c0: c895 af3c 7112 0a3d fcd0 1cbc 6cc1 f83c
000002d0: c2fa 7e3c fd65 11bc e997 c33c aa5f 26bc
000002e0: f19e 303d 4236 023c 2d38 233d 2956 75bb
000002f0: 3f0f b3bb d061 773c 74da b0bb 7acc cebc
00000300: 1d65 f8bc 566b 4f3b 490f b3bb e311 243c
00000310: febe 043b a984 cf3c 03c0 923d 6783 eb3c
00000320: 845a c93b 9e3d 053b 7b45 da3c 778e c83d
00000330: e3b0 0d3c f401 033d 52fb 3b3b fc08 bebb
00000340: 7467 053d cae7 e63c 7280 b23b 6c46 983c
00000350: 42ab da3c c7f9 1c3c f98d 3abd 31d2 1c3d
00000360: 0955 3e3d 8d34 c93c d0f0 183c 849c 403c
00000370: 74fd c13b e94e 453c 2129 dfbc 9956 ce3c
00000380: f7f9 2b3d a050 e13c d58b f8bc 78fe d13c
00000390: 28c2 a43c 1d9f 31bc 8277 963c 4c4a 1f3c
000003a0: deb7 78ba a0f7 d13c a726 9d3c b2b9 91ba
000003b0: 613d fb3b a5fc f7bb ad34 f9bc c792 e9bd
000003c0: 4b8f 00be 1f11 d1bc 6114 0dbc c96c 4b3d
000003d0: 3c2b a4bb fa69 463c 76c3 eb3c 42c9 893c
000003e0: a759 babb 07bc 66bc c662 8d3d 4ba6 afbb
000003f0: 9258 cebd 3c1e 2cbd f4a5 d33d 4781 543d

fc0.bias f4 [64]
0.049174722 0.13668647 -0.023956219 0.03186314 -0.21835886 -0.0813516 0.07446787 0.027064607
-0.03599331 -0.06664607 -0.08107224 0.08206182 -0.057471428 0.06507809 0.030401114 -0.091625504
-0.007878471 -0.07203665 0.06351569 -0.10162625 -0.086455554 -0.025641639 0.013399963 -0.00057450996
0.040609475 -0.17521015 0.13214526 0.044773646 0.029258622 -0.08308396 -0.042267125 0.07172156
0.07760498 -0.04219157 0.17974478 -0.0946744 -0.18538372 0.1767705 -0.16517897 0.04874045
0.11618009 0.0284807 0.03669441 -0.015221131 0.05574097 0.059621334 0.07388242 0.15991363
-0.08350671 -0.035185833 0.11848864 0.07363129 0.026028892 -0.101280555 -0.0981393 -0.01846774
0.009738443 -0.0713188 0.1132091 0.08970492 -0.08429575 -0.083708785 0.00071991066 -0.002369515
00000000: 6f6b 493d 8af7 0b3e d53f c4bc ed82 023d
00000010: 7799 5fbe ab9b a6bd 9c82 983d 98b6 dd3c
00000020: b96d 13bd bc7d 88bd 3409 a6bd 0710 a83d
00000030: 2967 6bbd a947 853d c20b f93c 27a6 bbbd
00000040: b414 01bc f387 93bd 8414 823d 6c21 d0bd
00000050: 9c0f b1bd 6a0e d2bc 858b 5b3c b69a 16ba
00000060: 1f56 263d 4a6a 33be 1651 073e 9264 373d
00000070: c7af ef3c ec27 aabd 4b20 2dbd c1e2 923d
00000080: 5cef 9e3d 11d1 2cbd 040f 383e a7e4 c1bd
00000090: 3bd5 3dbe 5303 353e ad24 29be 11a4 473d
000000a0: d4ef ed3d 5b50 e93c e14c 163d 0d62 79bc
000000b0: a550 643d 8035 743d ab4f 973d 66c0 233e
000000c0: 9105 abbd 051f 10bd 2caa f23d 00cc 963d
000000d0: 8b3a d53c 2e6c cfbd 42fd c8bd a849 97bc
000000e0: fe8d 1f3c 970f 92bd 2cda e73d 37b7 b73d
000000f0: 40a3 acbd 836f abbd 63b8 3c3a dd49 1bbb

fc1.weight f4 [10, 64]
-0.20300506 -0.17886287 -0.4634653 0.2200966 0.1018095 -0.28707734 -0.04787065 -0.022512248
0.114999734 -0.20904286 0.1025855 -0.31890512 0.026316822 -0.045494866 -0.03704243 -0.09064047
0.14873822 -0.30112463 0.18737634 -0.2586273 0.049334485 -0.03620064 -0.21024814 -0.12824796
-0.020634634 -0.30660343 -0.26043308 -0.09322082 0.16982013 0.11369424 -0.3199345 0.09993169
-0.30811164 -0.29969648 -0.13978273 0.0031870436 -0.22159345 -0.3058743 -0.029705675 0.052830443
-0.054837026 -0.36989698 -0.37608212 -0.07698365 -0.34657574 -0.21143112 -0.13806999 -0.046296757
0.041570026 -0.011736225 0.14858672 -0.52781606 0.11273318 -0.22962627 -0.3123273 -0.17765357
0.036415305 -0.27528903 -0.24854495 0.11506351 -0.012479742 0.051775537 -0.40064552 -0.23984528
0.016989108 0.051191527 -0.2941652 0.16959433 -0.2763228 -0.2917049 0.16084945 0.039000288
0.017170021 -0.19504295 -0.234056 0.21334001 -0.22185412 -0.27683976 0.07672161 -0.09309592
-0.2448551 -0.0045110057 -0.14497118 -0.3759393 -0.4423467 -0.32147917 0.12684557 0.118584946
-0.1427259 -0.2505003 0.22276051 0.22319359 -0.27341354 -0.16749129 0.101245 -0.19410113
0.15513235 -0.045088742 0.202686 -0.11267558 -0.28030264 0.34447926 -0.1387003 -0.06830667
-0.04873932 0.19775529 0.043706603 -0.10646442 0.13313183 -0.20168036 0.021969406 0.24566054
-0.024252104 -0.32165438 0.094345436 0.08095525 -0.28591102 -0.16571265 -0.25097767 0.123630635
-0.10864447 -0.29766345 0.2093677 0.032711506 -0.094235554 0.09330859 -0.16467223 -0.0029264437
0.08994508 0.09964468 -0.26411608 -0.28605846 0.1644333 0.09735575 0.16227542 -0.11024723
0.022409406 -0.4162295 -0.057647333 -0.18251272 0.20959054 0.061671015 -0.41586167 0.08754578
0.18279217 -0.1375009 -0.35041106 -0.20561022 -0.11376955 -0.04648595 -0.048769504 0.096916065
-0.3939111 -0.28847396 0.19745979 -0.29387003 -0.14135797 0.085744396 0.040607013 -0.16093715
-0.016492609 -0.08008421 -0.47607714 0.041509174 0.061419386 -0.3911236 -0.24513394 0.10551973
-0.26881135 -0.08520803 0.15876165 -0.029473102 -0.25830877 -0.139567 -0.06345862 -0.19304971
-0.033719048 -0.07526072 -0.39905247 -0.4932366 -0.2557496 0.08401241 -0.2144479 0.06665205
-0.18270865 -0.17565015 -0.38016573 -0.12154004 0.09709585 0.08209428 -0.34238517 0.10645345
-0.3128888 -0.3014998 -0.24234933 -0.29464835 -0.042055335 -0.19612245 -0.16803779 0.00909552
-0.052859027 -0.22244549 -0.049728032 0.072622865 0.055072784 -0.34324127 0.016428975 0.07286997
-0.10997671 0.066568576 -0.31624272 0.076239966 -0.26548207 -0.061818805 -0.3240656 0.24066521
-0.32340136 0.11526899 -0.07343704 -0.005523356 -0.077921815 -0.27134174 -0.02210152 -0.2899823
-0.5282735 0.05298255 -0.49051508 -0.0127027705 0.03039812 -0.5856059 0.09743281 -0.1419175
-0.15522525 0.24669908 -0.26579112 -0.29659328 -0.29870996 0.06354477 0.09319623 -0.5585871
0.18743901 0.10986845 -0.19459523 0.055789 -0.24912453 -0.31131914 0.04855011 0.01674318
0.021810861 0.030670933 -0.52617496 -0.283399 0.08168543 0.10713116 0.14636372 0.11500012
00000000: 8fe0 4fbe d427 37be 534b edbe 0161 613e
00000010: 8081 d03d cdfb 92be 0414 44bd 9b6b b8bc
00000020: fb84 eb3d 550f 56be 5918 d23d 8847 a3be
00000030: 6096 d73c d358 3abd ceb9 17bd b6a1 b9bd
00000040: d54e 183e 022d 9abe 95df 3f3e cc6a 84be
00000050: f512 4a3d 1f47 14bd 4a4b 57be 6f53 03be
00000060: f709 a9bc 20fb 9cbe 7c57 85be 8fea bebd
00000070: 54e5 2d3e 87d8 e83d 74ce a3be fca8 cc3d
00000080: cfc0 9dbe d171 99be 3423 0fbe b8dd 503b
00000090: 65e9 62be 8e9b 9cbe 5159 f3bc bc64 583d
000000a0: ca9c 60bd 2363 bdbe d68d c0be 9ba9 9dbd
000000b0: 6072 b1be 6681 58be 3862 0dbe aba1 3dbd
000000c0: 5545 2a3d 4c49 40bc 1e27 183e f41e 07bf
000000d0: a7e0 e63d 2623 6bbe 5de9 9fbe d1ea 35be
000000e0: 3728 153d aff2 8cbe 9182 7ebe 6ba6 eb3d
000000f0: d577 4cbc 9612 543d 6921 cdbe 009a 75be
00000100: be2c 8b3c 35ae 513d d29c 96be 23aa 2d3e
00000110: 2f7a 8dbe 585a 95be b8b5 243e c4be 1f3d
00000120: 25a8 8c3c 57b9 47be 60ac 6fbe ce75 5a3e
00000130: ba2d 63be f1bd 8dbe 3820 9d3d 13a9 bebd
00000140: 4cbb 7abe 0fd1 93bb 5373 14be 1e7b c0be
00000150: 447b e2be eb98 a4be cee3 013e aadc f23d
00000160: bd26 12be 9341 80be 551b 643e dc8c 643e
00000170: dcfc 8bbe d682 2bbe 8a59 cf3d 72c2 46be
00000180: 04db 1e3e f9ae 38bd eb8c 4f3e 74c2 e6bd
00000190: d483 8fbe 965f b03e 7407 0ebe 5ee4 8bbd
000001a0: e2a2 47bd 5d80 4a3e b205 333d 050a dabd
000001b0: b653 083e 4c85 4ebe 2ff9 b33c 708e 7b3e
000001c0: 59ac c6bc e2af a4be 2e38 c13d decb a53d
000001d0: ee62 92be 94b0 29be 2580 80be 0f32 fd3d
000001e0: fe80 debd 5867 98be 7d64 563e 80fc 053d
000001f0: 92fe c0bd 9318 bf3d d69f 28be 94c9 3fbb
00000200: 2035 b83d 8312 cc3d 393a 87be 4176 92be
00000210: 3461 283e 7462 c73d 872b 263e 4dc9 e1bd
00000220: ee93 b73c 081c d5be 9c1f 6cbd 9de4 3abe
00000230: e79e 563e bf9a 7c3d d2eb d4be 344b b33d
00000240: df2d 3b3e 09cd 0cbe 1469 b3be 7c8b 52be
00000250: 0300 e9bd 0d68 3ebd 88c2 47bd ee7b c63d
00000260: b7ae c9be dcb2 93be e632 4a3e 2276 96be
00000270: 25c0 10be c29a af3d 8a53 263d b5cc 24be
00000280: 821b 87bc 3103 a4bd 62c0 f3be 8605 2a3d
00000290: e592 7b3d 5a41 c8be 6404 7bbe ba1a d83d
000002a0: a4a1 89be 8c81 aebd 6a92 223e 9371 f1bc
000002b0: 0c41 84be a7ea 0ebe 98f6 81bd d3ae 45be
000002c0: fc1c 0abd 4b22 9abd 9b50 ccbe 8289 fcbe
000002d0: 9df1 82be b30e ac3d 3b98 5bbe df80 883d
000002e0: fa17 3bbe a2dd 33be 15a5 c2be fce9 f8bd
000002f0: 30da c63d 0c21 a83d 1c4d afbe 4404 da3d
00000300: f632 a0be 2f5e 9abe 6c2a 78be 26dc 96be
00000310: 3742 2cbd 53d4 48be 1912 2cbe 6005 153c
00000320: b582 58bd c0c8 63be 9faf 4bbd 4cbb 943d
00000330: 0094 613d 52bd afbe 0f96 863c da3c 953d
00000340: 783b e1bd 1b55 883d 91ea a1be b323 9c3d
00000350: 44ed 87be b735 7dbd edeb a5be f170 763e
00000360: dd94 a5be 2612 ec3d 2966 96bd 45fd b4bb
00000370: 7995 9fbd 4eed 8abe 3f0e b5bc 8f78 94be
00000380: ef3c 07bf 3b04 593d cb24 fbbe 481f 50bc
00000390: 7a05 f93c 45ea 15bf da8a c73d d252 11be
000003a0: 5ef3 1ebe af9e 7c3e c615 88be 13db 97be
000003b0: 83f0 98be c323 823d aadd be3d 90ff 0ebf
000003c0: 03f0 3f3e b602 e13d f943 47be 0283 643d
000003d0: 801a 7fbe 3965 9fbe 7bdc 463d fe28 893c
000003e0: b1ac b23c 9c41 fb3c 67b3 06bf ac19 91be
000003f0: b14a a73d 9567 db3d 5fe0 153e 2f85 eb3d

fc1.bias f4 [10]
-0.12408819 0.27007875 -0.027304145 -0.022517908 0.064806454 -0.11866804 -0.039728295 -0.024655858
-0.06400447 -0.001286835
00000000: f321 febd c347 8a3e f1ac dfbc 7a77 b8bc
00000010: 3fb9 843d 3b08 f3bd 23ba 22bd 15fb c9bc
00000020: c714 83bd 04ab a8ba
